model_zoo/team38_ESRNet.pth (torch, 646395 bytes, 46 tensors)

conv_1.eval_conv.weight f4 [28, 3, 3, 3]
000000 e7 bc 30 b7 12 e0 e3 3b ef ed 00 3a 2f 14 b5 3b
       -1.05344e-05 0.0069542015 0.00049182674 0.0055260877
000010 80 b0 ff 3d ff f5 89 ba 88 63 54 bb 9b d2 07 be
       0.124848366 -0.0010525583 -0.0032407958 -0.13263933
000020 b3 55 c8 3a ef e6 b1 ba 6c 91 d6 39 82 45 af 3a
       0.001528433 -0.0013572852 0.00040925608 0.0013372155
000030 2f 8d 76 3a 0c 90 80 3c c9 b0 c6 bb 47 5c 0a ba
       0.0009405193 0.015693687 -0.006063555 -0.00052780326
000040 0b 1b 30 bc 31 71 f6 39 90 40 fc 3a 0a 68 0e bc
       -0.010748635 0.0004700511 0.0019245315 -0.008691797
000050 d3 04 81 3a fa 12 11 bc 4b bb 12 be a4 48 aa 3b
       0.0009843357 -0.008854622 -0.14329259 0.0051966477
000060 7e 82 01 3c d0 43 13 3e 9c f4 62 ba 57 37 29 3a
       0.007904647 0.14381337 -0.00086576655 0.00064550847
000070 f4 a5 35 bd cf f0 64 3b fb a0 82 bb 9c 05 70 3d
       -0.04434772 0.0034933572 -0.0039864755 0.0585991
000080 e4 c7 96 bb 0c 15 a2 3b fa 52 98 bc 17 f8 6f 3b
       -0.0046014655 0.0049463566 -0.018594254 0.003661638
000090 e3 c3 05 3b fe ca 9f bb 36 a9 0a 3b 06 f9 f3 ba
       0.0020410947 -0.0048764935 0.0021157986 -0.0018613643
0000a0 60 0e af 3b 0e 04 6f bb 04 1a d4 ba 37 94 c5 3a
       0.00534229 -0.0036470923 -0.001618207 0.0015074079
0000b0 d7 e4 7b 3a 9e 1b f9 ba 5e ee 64 3d 5f ee cc bb
       0.000960899 -0.0019005423 0.055891387 -0.006254002
0000c0 53 8b b2 3b 91 74 93 bd 1e 6b 11 3c f6 18 41 bb
       0.0054487376 -0.07199968 0.008875636 -0.002946434
0000d0 44 78 97 3c a2 72 b3 bb 21 08 84 38 03 79 c8 3a
       0.018489964 -0.005476312 6.2957646e-05 0.0015294853
0000e0 de 5b 89 3a 76 a4 f9 bd 9a c9 fc 3d 8f 57 11 bb
       0.0010479649 -0.121895716 0.1234314 -0.0022177433
0000f0 48 91 a2 3a e8 90 a7 bb 1b 17 1c 3a ee 38 0b bb
       0.0012402916 -0.0051137097 0.0005954371 -0.002124365
000100 b6 ba 09 bb 28 a9 83 36 87 66 f1 bb 80 f0 63 3c
       -0.002101583 3.9237966e-06 -0.0073669585 0.01391232
000110 04 05 0a bb 2c e0 84 b8 cb 5a dd 3a 05 a8 be 3a
       -0.0021060118 -6.336006e-05 0.001688802 0.0014545923
000120 82 49 31 3b de f1 02 39 f7 e3 c5 ba f4 8c 08 3e
       0.002705187 0.00012487869 -0.0015097846 0.1333502
000130 68 7e 0d be 28 47 39 3b be b3 a3 ba 5e b6 ed 3a
       -0.13817751 0.0028271172 -0.001248948 0.0018136015
000140 84 62 e6 ba 5c 5b 93 39 e9 1a 15 3b 6f 0f a4 3a
       -0.0017576967 0.00028106093 0.0022751635 0.0012516807
000150 90 ae 54 3a 42 eb f5 bc 4e 6a 39 3b 4f 9a 8e 3a
       0.000811317 -0.030019406 0.0028292122 0.0010879728
000160 7b c2 4f 3a 9f e9 49 3a c9 98 11 3a 70 70 60 3a
       0.0007925403 0.0007702354 0.0005554078 0.00085616764
000170 44 b8 8a 39 5c d7 bb b9 76 9e d7 bc 2f ef 46 ba
       0.000264587 -0.00035827875 -0.026320677 -0.0007588742
000180 2c 79 4d ba 25 b3 e1 b9 e7 0e 6c 39 dc 53 01 3b
       -0.00078381854 -0.00043048817 0.00022512265 0.0019733822
000190 08 6e 08 bb 58 7f 18 3a 66 cd f0 3a 1c a7 85 bd
       -0.0020817537 0.00058173155 0.001837176 -0.06526014
0001a0 62 30 1b 3a c2 1c 28 3b c0 dc 78 3b 6e 60 8a 3a
       0.00059199904 0.0025651907 0.0037973374 0.0010557303
0001b0 5b 8b a5 37 9f 6f c4 3a 03 9e 82 b8 bc 9c 23 39
       1.9734425e-05 0.0014986879 -6.228315e-05 0.0001560328
0001c0 00 87 79 bb b1 2b 89 39 d5 51 44 3a 89 2c e3 3a
       -0.003807485 0.0002616323 0.00074890006 0.0017331998
0001d0 12 8a 10 39 18 da 5e b9 09 2d c5 b9 1b 7b ad ba
       0.00013784345 -0.00021252816 -0.00037608322 -0.0013235541
0001e0 45 3e b7 39 c0 03 98 39 3a 7e 35 3a f5 ad d6 b9
       0.00034950874 0.00028994493 0.0006923411 -0.0004094687
0001f0 4f a6 c6 3a 15 4d 98 b9 4f e2 de 3a 09 35 9f bb
       0.0015155765 -0.0002904913 0.0017004701 -0.004858617
000200 b9 5c 7b 3a 55 22 04 bb 78 87 df 3b 0f c4 89 ba
       0.0009588707 -0.0020162065 0.006821569 -0.00105107
000210 96 34 7d 3a ca 14 73 bb 70 5f 8d 39 86 68 b4 b9
       0.000965902 -0.0037091249 0.00026964722 -0.0003441015
000220 3f e4 a6 3a e5 63 98 ba c5 3e b8 ba 00 95 16 3b
       0.0012732818 -0.001162645 -0.0014056793 0.0022976995
000230 5a 1e f7 39 53 b5 5b 39 15 ea 05 bb 17 82 75 b7
       0.00047134125 0.00020953016 -0.0020433713 -1.4633427e-05
000240 06 99 20 3b f6 ca ba bb 31 cc 82 3b be de 35 3b
       0.0024505272 -0.0057004644 0.0039916267 0.0027751173
000250 00 52 e2 b9 26 49 06 bb d7 3a fe 38 8c 73 25 ba
       -0.00043167174 -0.0020490377 0.000121226236 -0.00063114683
000260 10 ce 1e 3a 96 fa 68 ba 9f ba 79 3b 7e 29 0b bb
       0.00060579274 -0.0008887438 0.003810562 -0.0021234448
000270 2d e6 cf ba 40 61 43 bb c6 de 70 3a 28 4e 0b ba
       -0.0015861444 -0.0029812604 0.0009188469 -0.00053140754
000280 5d c9 85 3b 05 10 6a ba 9f cd e6 ba 7c 3a c4 bb
       0.0040828423 -0.00089287787 -0.0017608887 -0.005988417
000290 89 9f c0 ba cd 0c 00 bc b0 b9 0e 3d 47 e9 08 bc
       -0.0014695983 -0.007815552 0.034845054 -0.008356399
0002a0 b7 8e 23 3a a0 24 d1 bb 3c 6f 65 3a 27 04 d6 ba
       0.0006239223 -0.00638254 0.0008752232 -0.0016328142
0002b0 8a 90 d3 ba 64 7e 6e ba 03 6e b8 bb 06 c5 a4 3c
       -0.0016141098 -0.0009097813 -0.005628349 0.02011348
0002c0 2f 40 28 bb a4 60 29 bb ab a1 97 ba 66 f7 f2 ba
       -0.0025673022 -0.0025844956 -0.0011568567 -0.0018536865
0002d0 e9 7f 0e 3a 8e 9e 0a bc 2d 7d 7b ba ea b5 86 bb
       0.000543593 -0.008460654 -0.0009593543 -0.0041110413
0002e0 31 fa ff 3c 56 45 8e bb 3f 12 60 ba 8b b0 62 bb
       0.03124723 -0.0043417616 -0.0008547641 -0.003459009
0002f0 b8 53 5a ba d0 16 03 ba c7 56 9f 3a 08 ce 95 ba
       -0.0008328515 -0.0005000653 0.0012156599 -0.00114292
000300 d9 87 0e 3a 20 e0 87 bb 06 c0 de 39 bc c4 c4 39
       0.0005437113 -0.004146591 0.00042486208 0.00037530612
000310 30 84 bc 3b 01 ce 88 3a 54 ef 38 bb b6 74 9b 3b
       0.0057530627 0.001043737 -0.0028218823 0.0047441376
000320 d0 16 24 bb 81 f0 cc 3b a0 87 82 bc a3 eb 96 3b
       -0.0025038011 0.0062542562 -0.015933812 0.004605727
000330 af ac 8b bb 0e 98 d6 3b cd 11 1b bb 33 17 2f 38
       -0.004262529 0.006548888 -0.0023661733 4.1744857e-05
000340 86 b2 61 3b ec 4b c8 ba 09 b3 88 3b 23 a0 29 bc
       0.0034438684 -0.0015281416 0.0041717333 -0.010353121
000350 2c 0c a9 3b 6f 8f 6e 3a 81 49 ee 3a ae 85 cd 39
       0.0051589217 0.0009100353 0.0018179865 0.00039200246
000360 a1 f2 33 3a 72 92 00 3c c1 62 9b 39 86 05 69 3b
       0.00068644626 0.007847415 0.0002963748 0.003555627
000370 cc 3c 39 bd 1c 39 a3 3b ee ac 39 b9 41 89 ab 3b
       -0.045223996 0.004981173 -0.00017707396 0.005234868
000380 2d 28 1c ba 69 50 35 39 e5 d0 0c 3c 86 e3 3c 39
       -0.00059569144 0.0001729146 0.008594726 0.00018013836
000390 f5 91 d8 3b b7 bf 66 bd 92 22 a7 3b 46 a3 21 b9
       0.0066091963 -0.056335177 0.0051005566 -0.0001541498
0003a0 72 d6 b6 3b da 37 56 38 dc 3d 2a b9 08 11 cc 3b
       0.005579763 5.107359e-05 -0.00016235508 0.006227616
0003b0 2b 6f b5 39 ec 98 b9 3b 1c 19 30 bd e6 11 a4 3b
       0.00034605837 0.0056639817 -0.042992696 0.0050070165
0003c0 f1 cb 3a b8 d1 c9 a1 3b e6 16 0f b9 5e 02 1a 3b
       -4.453579e-05 0.0049373885 -0.00013646073 0.0023499946
0003d0 a1 2c d3 ba 18 26 51 3b 6e f5 a3 bc 74 0c a1 3d
       -0.0016111323 0.0031913575 -0.020014491 0.07863703
0003e0 be 1b 85 bd 8c 03 a3 3a 5f 54 f2 ba 0f cb 19 3b
       -0.06499432 0.001243697 -0.0018488279 0.002346698
0003f0 45 58 43 bb 7d 34 5d 3b 53 52 ca bb f4 e6 04 3d
       -0.0029807251 0.003375321 -0.0061743646 0.032446817

conv_1.eval_conv.bias f4 [28]
000000 82 e8 99 be 5b 5d 37 3e d7 58 73 be c2 a3 85 3f
       -0.30060202 0.17906706 -0.23764358 1.04406
000010 30 95 6f bd 9a 88 60 3d b1 79 aa be 5f 3d 84 3c
       -0.058491886 0.054817773 -0.33295968 0.016142545
000020 ba 08 3f 40 38 67 1a 3d 04 79 f7 bd 38 ce 86 bc
       2.9849076 0.037696093 -0.12083629 -0.016455755
000030 12 87 eb bc e0 3c 2d bd 1d d8 2b be 84 42 13 be
       -0.02875093 -0.042294383 -0.1678166 -0.14380842
000040 30 b1 6c bc 44 33 25 3e 7e 60 55 3e 14 c7 61 be
       -0.014446542 0.16132838 0.2083759 -0.22048599
000050 16 1b 8f be b2 c5 b5 bd ae db 73 3e 79 f6 8b 3e
       -0.27950352 -0.08875598 0.2381427 0.2733648
000060 54 97 9f be ee 88 0c 3d 11 21 a3 3d d6 25 8f be
       -0.31170142 0.034310274 0.07965291 -0.27958554

block_1.c1_r.eval_conv.weight f4 [28, 28, 3, 3]
000000 bc bd 53 3c 94 60 48 bb f3 ba f8 3a a3 9f 7a ba
       0.012923654 -0.0030575143 0.0018976614 -0.0009560531
000010 96 cd 84 bc 8f 50 1c bb f1 5b fa 39 9d 30 cb bb
       -0.016211312 -0.0023851728 0.00047752218 -0.0062008635
000020 fc fd c3 3a 61 0c d0 3b 26 df c2 bc f0 ae a5 3c
       0.0014953013 0.006349132 -0.023788046 0.020225018
000030 96 44 c7 3c fb 31 82 3d c5 53 35 3b 08 57 06 bc
       0.024324697 0.06357189 0.0027668339 -0.008199461
000040 73 a3 50 bb 82 fc ff bb bc 74 10 ba cc 2b d7 39
       -0.0031835705 -0.0078120837 -0.0005510559 0.00041040627
000050 2a 7a cc 3b 63 82 14 bb 60 1d ee 38 51 96 5b 3b
       0.006240149 -0.0022660724 0.00011354196 0.0033506344
000060 e4 02 1e bb 8e cf f9 3b d3 0a 81 3b f9 9b 97 bb
       -0.002411061 0.0076236194 0.003938058 -0.0046267477
000070 16 ac c7 3c 33 87 46 bd 35 85 5e 3c 14 9d f0 3e
       0.02437405 -0.04846878 0.013581564 0.4699484
000080 7d 87 2f 3d d9 27 b5 bc 2a 89 2c 3c c3 97 12 bd
       0.04285382 -0.022113727 0.010530749 -0.035789263
000090 34 0c 65 bd 9d 13 99 3d 4b 6f 30 bc 54 68 c3 bd
       -0.05591984 0.07474444 -0.010768722 -0.095413834
0000a0 c4 1f 38 bc 98 cb 80 3d 7e 01 7a 3c 76 1c 94 3c
       -0.011238042 0.062888324 0.015259145 0.018079977
0000b0 21 6e 85 bd 47 fa cf 3b 35 b9 e5 3c 45 e3 f6 3b
       -0.06515146 0.006346974 0.028042415 0.007534417
0000c0 e2 65 85 3d 9b 25 47 bd 66 9c 2a 3d 71 b6 9f bc
       0.06513573 -0.048619848 0.04165306 -0.019496175
0000d0 e2 20 a7 3d 0d 6c 13 bd b5 d8 92 3b 40 0d 90 bb
       0.08160569 -0.035991717 0.0044814 -0.004396111
0000e0 b9 c9 c5 3c f1 fa e4 3c 57 6d ae 3d 23 d5 02 bd
       0.02414404 0.02795169 0.08516949 -0.031941544
0000f0 5e a3 7f 3a 70 b2 22 3c 3d 82 ed 3b 9f cb d1 bc
       0.00097518216 0.009930238 0.0072481916 -0.02560979
000100 e1 b7 64 3c 39 4c c1 bb e2 e0 33 bd 74 ca 74 3d
       0.013959856 -0.005898979 -0.043915637 0.059763387
000110 9e 3f 7f 3d 8d b3 3a bd c0 df 6b 3d fd 8a c8 bc
       0.06231653 -0.04558139 0.05758643 -0.024480337
000120 9f af 8d 3c 0c 63 cb bc 4e e7 ab 3d 28 91 30 bc
       0.017295657 -0.024827503 0.08393727 -0.010776795
000130 50 e2 79 3b 9c c2 92 bd 92 88 45 3d 38 b7 5a bc
       0.0038129278 -0.07166025 0.048225947 -0.013349347
000140 05 78 43 3d d0 b4 0d bb f6 81 6b ba 2c d4 48 bb
       0.04772188 -0.0021622665 -0.0008983904 -0.0030644042
000150 ee d8 3f bc 61 00 9b 3d 4a 51 b1 3b d4 49 99 bb
       -0.011709435 0.07568432 0.0054113017 -0.0046779905
000160 c7 9d 0c 3c 6b 4a eb 3b 71 59 23 3c 31 40 bb 3c
       0.008582539 0.007180502 0.009970055 0.022857757
000170 99 0c 1d 3d 2c 49 93 bc b3 76 8f bd 93 25 82 bc
       0.038342092 -0.017979227 -0.07005062 -0.015887057
000180 b3 8b b5 3c e4 30 0c bd ff f3 94 bc 4e f2 82 3b
       0.02216134 -0.034226313 -0.018182753 0.00399617
000190 96 ec 27 bb 98 7c 6c ba a3 c0 b3 bb 65 ce 09 3d
       -0.0025623194 -0.00090212515 -0.0054856106 0.0336441
0001a0 4d 69 af bb 05 6a bb 3b 46 87 10 3c 04 72 17 3c
       -0.005353129 0.0057194256 0.008821314 0.009243492
0001b0 08 2f be bb 51 9c b4 bb 96 25 f9 3c 3d 21 f5 3a
       -0.0058039464 -0.0055117984 0.03041343 0.0018701922
0001c0 a0 12 3d ba e9 04 12 bc 01 e9 94 3c b6 11 6c 3c
       -0.0007212553 -0.0089123035 0.018177511 0.0144085195
0001d0 8d 0c 33 3c 95 bc c1 3b d6 2c 54 3d 03 f5 ac bc
       0.010928285 0.0059123733 0.05180057 -0.021112924
0001e0 b9 c4 6e 3d 1b d7 15 be 24 d0 33 3d 74 e5 f8 3b
       0.058293078 -0.14632837 0.04389967 0.0075957123
0001f0 c7 54 49 3d 29 e2 09 3d fe d1 41 3b fd 90 44 3c
       0.049153116 0.03366295 0.0029574628 0.0119974585
000200 4f 44 9d 3c 20 09 0e bc 75 71 01 3e bd e9 86 3c
       0.019197611 -0.008669168 0.12640937 0.016468877
000210 2e 35 88 3b 87 c1 80 bc 51 9d 79 3c 35 67 fe bb
       0.00415673 -0.015717281 0.015235261 -0.007763768
000220 ce 8e 05 38 26 01 34 bc f2 63 74 3c ea ec d2 bc
       3.184267e-05 -0.010986602 0.014916407 -0.025747735
000230 f2 71 9e 3b 55 e7 70 bc 7a 8b d1 bc 2c b0 8a 3c
       0.0048353607 -0.014703591 -0.025579203 0.016929708
000240 73 18 14 bb aa f7 65 bb 8f 45 a8 3b 17 9f be 3b
       -0.002259758 -0.0035090246 0.005135245 0.005817305
000250 d4 2e b8 bc d4 68 57 bb 64 d4 00 3c 6e 5b 44 38
       -0.022483267 -0.003286888 0.007863138 4.6815192e-05
000260 d2 99 09 ba 44 f7 a2 bb c7 57 28 bb 0a 81 15 bc
       -0.0005249056 -0.004973324 -0.0025687085 -0.009125004
000270 2f 99 1b 3b 30 c8 49 bc ce 01 3a bc 6b 5f 17 3a
       0.0023742428 -0.012315795 -0.011352969 0.0005774411
000280 bf 0d 9f ba 80 18 49 3c 9c e3 ed 3c 85 1a 94 3c
       -0.0012134834 0.012273908 0.029039197 0.018079052
000290 a0 2a 79 3b 8c f4 99 bc 42 98 0c be 75 80 83 bc
       0.0038019791 -0.018793367 -0.13729957 -0.016052464
0002a0 09 17 03 bd 05 cf 00 3d f8 ac 87 3c 49 fb b6 bb
       -0.03200439 0.03144743 0.01656197 -0.0055841547
0002b0 a3 08 46 bb ee 53 19 3c d2 58 a3 bc 24 be f4 bc
       -0.003021755 0.009358389 -0.019939814 -0.029875822
0002c0 80 f2 cd 3c 02 d5 87 3a 8d e3 47 3c 39 3e 78 bc
       0.025140047 0.0010363164 0.012200248 -0.015151554
0002d0 89 47 b2 3b f7 61 83 bb dc bf 25 bc 36 61 6d bc
       0.0054406566 -0.004009481 -0.010116544 -0.014488509
0002e0 7a 7e 47 3d c3 60 68 3c e5 e6 a3 bb 6d 5e 08 bc
       0.0487046 0.014183226 -0.00500189 -0.008323294
0002f0 e9 9a 58 3b 96 fb 22 bb 37 1b 74 bc fe 35 89 bb
       0.0033051318 -0.0024869195 -0.014899067 -0.0041873446
000300 1a dc 32 bb 9a ae 06 3c 84 f3 04 3c a0 a4 00 bc
       -0.0027291835 0.008220339 0.008114699 -0.00785175
000310 11 44 89 3c 05 2f 94 3b 15 4f db bb f1 d3 6d 3c
       0.01675609 0.0045222067 -0.006692777 0.014515863
000320 f0 8f ea bc 34 95 85 3c de a0 42 be 35 28 fe 3b
       -0.028633088 0.016306497 -0.19006678 0.007756258
000330 20 60 90 3c 5e d9 ab bc e8 d5 dc 3c b7 7b 78 bb
       0.017623961 -0.020977672 0.026957467 -0.0037915537
000340 5a 01 ab bb a3 8d 1c 3b d4 a0 af ba 70 ce 57 3e
       -0.005218667 0.0023888133 -0.0013399371 0.21074843
000350 75 bf 1e bc d9 2f 3e 3b 30 6b fb 3b d9 97 4f 3b
       -0.009689202 0.0029020219 0.00767269 0.0031676202
000360 d2 e0 f2 ba 89 f7 8d bb bf 40 06 3c ff 76 25 bc
       -0.0018530136 -0.004332487 0.008194148 -0.010099172
000370 46 41 fb 3c 92 c9 c9 bb 3f a5 1c 3b 99 8a 06 bc
       0.030670773 -0.0061580623 0.0023902205 -0.008211755
000380 05 67 c0 ba de c5 25 3d 9c 16 7a bc 76 e6 64 3d
       -0.001467914 0.040471904 -0.01526418 0.055883847
000390 e0 df 93 3c 8c a9 78 3e 93 54 0e be ad 18 18 bd
       0.018051088 0.24283427 -0.1389945 -0.037132908
0003a0 00 1d 19 3d 4a aa 4d bc e1 06 98 3c da 52 6b bd
       0.037381172 -0.012552807 0.018557968 -0.05745206
0003b0 00 c3 6c bc 81 db 8d bc c0 f4 38 3e 57 58 4d bd
       -0.0144507885 -0.017316582 0.18062115 -0.050133076
0003c0 54 b3 2a 3d 31 0c c9 bd 4d 36 85 3d e8 7a 92 3a
       0.041674927 -0.098167785 0.06504498 0.0011175545
0003d0 b4 92 a4 bb 7c 33 b8 bc 9a ce 1b 3c 3c 96 b4 bd
       -0.005022371 -0.022485487 0.009509707 -0.088177174
0003e0 c0 81 1a bc 8c e5 7d bc d6 7b e0 3c 71 8e df bb
       -0.009430349 -0.015496623 0.0274028 -0.0068224003
0003f0 7d d3 80 3c 70 ca 60 3c 4f 97 96 bc 51 db e7 bd
       0.015725845 0.01372014 -0.018382696 -0.11321128

block_1.c1_r.eval_conv.bias f4 [28]
000000 c0 97 5a c0 d2 13 d2 3e 8e 71 70 3f 72 ed 13 bf
       -3.415512 0.41030747 0.9392327 -0.5778419
000010 ce 37 4b 3f e9 83 6d be fe b7 56 c1 9f 3c 7f 3e
       0.79382026 -0.23194851 -13.41992 0.24925469
000020 ee e3 c6 bf 42 cc 09 c0 24 aa 49 3e c4 54 b1 bd
       -1.5538309 -2.153092 0.1969381 -0.08658746
000030 bc cb 31 bf 5f 65 11 c1 0e 6e a6 bd 7a a8 65 3f
       -0.694515 -9.087249 -0.0812646 0.897102
000040 b0 80 f3 be 20 67 96 c1 23 96 a1 3f e2 c8 9f 3e
       -0.47559118 -18.800354 1.2623943 0.3120795
000050 b2 24 b1 bf df 65 a2 be 54 4e 7c 40 76 67 ed 3f
       -1.3839324 -0.31718346 3.9422808 1.8547199
000060 89 cd 47 3f 25 31 04 be db d4 50 be ad 8a 11 be
       0.78047997 -0.12909372 -0.20393698 -0.14213057

block_1.c2_r.eval_conv.weight f4 [28, 28, 3, 3]
000000 8b e3 42 bb 72 20 47 bd a0 b6 09 bd c0 1c a2 bc
       -0.0029737677 -0.048614927 -0.03362143 -0.0197891
000010 36 75 50 be b8 b9 94 bd 4e 8b c2 3d a4 5c 9c bc
       -0.20357212 -0.072619855 0.094992265 -0.019087143
000020 4f cd 5f bb b4 6f eb bb f2 78 d0 3b 57 ae 9c bb
       -0.0034149473 -0.007184947 0.006362074 -0.004781525
000030 93 92 9a bb 66 aa 7c 3c 23 b7 81 bb db a4 0d 3a
       -0.00471718 0.0154214855 -0.003958599 0.00054032885
000040 06 e9 0d bb 89 7b 10 ba 00 b5 87 3a 89 24 82 3b
       -0.0021653785 -0.0005511572 0.0010353625 0.0039716405
000050 9d e8 c6 bb 90 fa 27 bc 33 e0 7b bc a7 f3 dc 3b
       -0.00607021 -0.01025261 -0.0153732775 0.006742913
000060 4b ba 0e 3b e3 01 a7 bb f0 2f 52 bc 6e 90 35 bb
       0.002177852 -0.0050966605 -0.012828812 -0.0027704495
000070 3c a4 0a 3c 29 6b 83 bb 82 b0 5a 3c b4 67 c5 bc
       0.008462008 -0.004010577 0.013347747 -0.024097301
000080 d9 1e 18 bc 1d 03 11 bb 86 f8 6f bc 7b 0b a3 3b
       -0.009284698 -0.00221271 -0.014646655 0.004975734
000090 81 36 47 3c 16 9f 76 3a e0 bc 92 3c 9a 1c 92 3a
       0.012158991 0.0009407861 0.017912328 0.001114744
0000a0 30 70 5c bc 58 d0 8e 3b dc 6d 5e 3b de 18 1b bc
       -0.013454482 0.0043583326 0.0033939993 -0.009466378
0000b0 2c 8e 94 ba 7d 14 fd bd f7 2f b7 3e 4f da 9f bd
       -0.0011333874 -0.123574235 0.35778782 -0.07805311
0000c0 ac 0f 24 3e cd 7a 0e bf 3f c8 13 be db 0f ea bd
       0.16021603 -0.5565613 -0.14431857 -0.114288054
0000d0 06 c2 3a bd fc bc c1 bd 4f 21 38 3e 55 e5 c6 ba
       -0.04559519 -0.09459874 0.17981456 -0.0015174547
0000e0 8c 58 08 3e b8 f5 91 3c b1 a4 db bf 39 06 56 bb
       0.13315028 0.017817363 -1.7159635 -0.0032657518
0000f0 99 f5 83 3e f7 e1 21 be 5d c4 06 3e b6 b6 68 bb
       0.25773314 -0.15808855 0.13160844 -0.0035509295
000100 5a fe e5 3a 63 be 4d bb 00 0d 9a bb 7e 8f 8e bc
       0.0017547116 -0.0031393997 -0.0047012568 -0.017402407
000110 1e d8 06 3b e1 24 d5 3a 73 90 76 bc 2e 14 e0 ba
       0.0020575593 0.0016261601 -0.015049088 -0.0017095858
000120 7c ac c5 bc 55 4b df bb 91 31 7f 3d 5e 35 a3 3c
       -0.024130099 -0.0068144 0.06230313 0.019922908
000130 69 f1 c6 3d 96 c3 a8 bd 34 35 95 bc 5c cb 9b bc
       0.09714014 -0.0824043 -0.018213846 -0.019017868
000140 f7 fb 5e 3c ed 78 ab 3c 34 1a 4c be c2 34 f5 bd
       0.013609878 0.020931685 -0.1993187 -0.119729534
000150 89 21 e8 bd 45 1a cc 3f 19 08 6e be 53 bd a6 bd
       -0.11334521 1.5945517 -0.23245277 -0.081415795
000160 85 c5 a9 be 5a 3b 3f bc c4 1f 99 3d 3c c9 13 be
       -0.33158508 -0.011671865 0.07476762 -0.14432234
000170 10 48 a6 3d 96 3c 01 be 98 2d 97 3f ab d6 91 3e
       0.081192136 -0.12620768 1.1810789 0.2848409
000180 46 45 7b 3c 55 2c 7d 3e dc 17 59 3d 9d 57 33 ba
       0.01533634 0.24723943 0.05300127 -0.00068413635
000190 8e eb 61 bd 42 05 1f bc 48 ec 6c 3d 16 b3 90 3d
       -0.055156283 -0.009705843 0.057842523 0.07065408
0001a0 c7 61 03 bd 1f ce e9 bb 0a 41 e8 bc 42 bd 87 bb
       -0.03207567 -0.0071351673 -0.028351326 -0.0041424343
0001b0 15 de 3c 3c 6f 6e d8 3c 40 c9 a3 3b b7 7a 58 3c
       0.011527558 0.026419846 0.004998356 0.013212851
0001c0 e4 f4 f3 bc 50 e8 9b 3a 50 2f db 3b af 78 64 bb
       -0.029779859 0.0011894796 0.0066889897 -0.0034861972
0001d0 41 3b 87 3a 90 c1 88 3d 3d 9f 0a 3c c9 8a 1a 3d
       0.0010317342 0.06677544 0.008460817 0.037730012
0001e0 a2 48 3d 3c 9f 5f 9c 40 d1 34 02 3d 0a 99 de 3c
       0.011552962 4.8866725 0.03178865 0.027172584
0001f0 c0 17 9b 3d 9c 5f 39 3d 17 4b f8 bb 75 2e 4b 3a
       0.07572889 0.045257196 -0.007577311 0.0007750758
000200 b2 fd 9b bc e2 55 53 bc f4 2d 41 bc d2 0d 6a bc
       -0.01904187 -0.012898894 -0.011790741 -0.014285522
000210 44 8f 7a bc fc e6 c7 37 63 ce 00 bc b3 ec 1c bd
       -0.015292946 2.383021e-05 -0.007861706 -0.03831167
000220 8c e8 61 3c a8 93 52 bd 5c f0 97 bc 40 db 0f bb
       0.013788354 -0.051410347 -0.01854723 -0.0021950752
000230 de fa 13 3c bc b6 2a bd e4 28 45 3d 81 7e 59 3c
       0.009031979 -0.041678175 0.0481347 0.01327479
000240 e0 9b 3d 38 28 e0 04 b9 8c 06 9e 3b 60 6d 14 bb
       4.520628e-05 -0.00012672006 0.004822558 -0.00226482
000250 18 86 24 bb c6 d1 21 ba b3 fa 22 3b 8b 62 67 bb
       -0.002510434 -0.0006172921 0.0024868667 -0.003530654
000260 10 93 b0 3b 22 2c a8 3c 55 b1 8f bc 9b 83 c0 3c
       0.005388625 0.020528857 -0.017540613 0.023500254
000270 fc 0a b2 bd 7f 34 f7 bf eb b7 ce 3c 17 90 01 be
       -0.08693501 -1.9312896 0.025234183 -0.12652622
000280 b7 21 17 bd 7f 62 cc bd 25 ac 87 3a cd a6 1a ba
       -0.036897387 -0.09979724 0.0010350986 -0.0005899489
000290 fc b5 83 bb 5e 20 d9 ba d0 19 4d 3c 64 55 69 3c
       -0.004019497 -0.0016565432 0.012518361 0.01424155
0002a0 94 bf ad bb 84 48 d5 bb 00 13 98 bb fb b3 94 bb
       -0.005302379 -0.0065088887 -0.004640937 -0.004538057
0002b0 ba 56 a8 3c ab 36 2e 3b e2 8d b1 3c 06 8e 90 3d
       0.020549167 0.0026582878 0.0216741 0.07058339
0002c0 45 a6 db 3c 6a 84 1f 3c dd 22 0f 3c ab ad 40 bb
       0.026812682 0.00973616 0.008736339 -0.002940039
0002d0 f2 0a 16 3b 2b 5c 41 3c 19 25 f6 3b c3 74 47 bc
       0.0022894708 0.01180176 0.0075117466 -0.012173834
0002e0 15 be a8 bd 52 3a a1 3b ea 76 d4 bb 9c 98 9d bb
       -0.0823938 0.0049202824 -0.006483902 -0.004809452
0002f0 4b ab 69 bb be b9 19 3b 86 b5 d4 bb 28 14 95 bc
       -0.0035655077 0.0023456658 -0.006491366 -0.018198088
000300 00 e7 18 bb 18 2d a3 bb ca 1d 97 3c 12 05 19 3c
       -0.0023331046 -0.004979741 0.018446822 0.009339588
000310 85 56 0a bb 2b 6a 03 3b 94 72 1a bc 52 f8 d5 b8
       -0.0021108699 0.0020052295 -0.009426732 -0.00010202885
000320 dd f4 06 bd b6 8c a9 3d 4f 36 ee bd c6 90 73 bc
       -0.032948364 0.082787916 -0.11631452 -0.01486606
000330 03 8e 80 3b d9 d6 62 3d fe d2 d4 bb 18 c0 1f 3c
       0.003923179 0.055380676 -0.006494879 0.009750389
000340 d2 d9 77 3c 4b 37 97 3c 1c 70 8e bb a8 e9 3d bd
       0.015127616 0.018458983 -0.0043468606 -0.04636541
000350 37 aa d2 3c a7 09 14 bd 98 ac ab 3c 95 fa 28 bd
       0.02571593 -0.036142018 0.020956323 -0.0412546
000360 ee 7b 6f bb 08 69 80 bc 6e fd 1c bc 0a 63 4e bc
       -0.0036542374 -0.015675083 -0.009581907 -0.012596855
000370 24 74 8e bc 03 f5 16 bc fd de 36 3c a1 57 6a 3c
       -0.017389365 -0.009213689 0.011161563 0.014303119
000380 34 0f e0 bb c2 00 98 38 2b 59 8e 39 c7 67 f7 bb
       -0.00683775 7.248066e-05 0.00027150786 -0.007550213
000390 b2 58 b4 bb 88 df 8b 3b b8 18 cc ba 20 df 3b ba
       -0.0055037374 0.0042685904 -0.0015571332 -0.0007166732
0003a0 20 94 1d 3c b8 9a cf 3b bd d4 17 3c 09 37 db 3c
       0.009617835 0.0063355826 0.009267029 0.026759641
0003b0 0d b2 41 3c 9d 60 49 3c c8 6c 10 3a a9 11 8b 3b
       0.011822236 0.012291101 0.0005509374 0.0042440486
0003c0 52 0e 95 3b 0d dc 0c 3c 31 98 8a ba bd 08 96 3d
       0.0045488263 0.008597386 -0.0010573921 0.073258854
0003d0 54 15 03 3c 6f c7 61 3e a8 3e fb 3d fa d1 f4 3d
       0.0080006905 0.22048734 0.1226781 0.11954112
0003e0 c8 43 14 3e 92 6e 1d 3e 88 7f ab bb 3b c4 9c 3d
       0.14478981 0.1537421 -0.005233709 0.076546155
0003f0 c2 d6 38 bb 1c e3 44 be 84 bb b3 bb ba 8f 84 bd
       -0.0028204178 -0.1922726 -0.005485 -0.06472726

block_1.c2_r.eval_conv.bias f4 [28]
000000 fe 94 32 c0 33 80 e2 be ed c5 73 be 53 ae 19 3f
       -2.7903438 -0.44238433 -0.23805971 0.6003162
000010 1a 5a 95 bf f6 d3 2f be 18 57 a6 bf d3 95 6f 3f
       -1.1668122 -0.171707 -1.2995329 0.9358799
000020 eb 0a 67 c0 fa bd 06 c0 07 ef c3 be 54 11 2c 3e
       -3.6100414 -2.1053452 -0.382683 0.16803485
000030 0d ec 16 c1 41 f9 35 be 0e 36 6e bf 46 db 88 3e
       -9.43263 -0.17770864 -0.9305123 0.26729792
000040 c6 86 83 3f 5c 58 e1 be e6 69 43 c0 64 fe 9c 3d
       1.0275505 -0.44012725 -3.0533385 0.07665709
000050 10 ba a9 be d2 06 02 bf 0a df 0e c0 1b 11 79 bf
       -0.33149767 -0.50791657 -2.2323632 -0.97291726
000060 c8 89 11 bf 7d 23 41 c0 aa 4c 03 c1 d8 6b 8e bf
       -0.5685086 -3.017791 -8.206217 -1.1126661

block_1.c3_r.eval_conv.weight f4 [28, 28, 3, 3]
000000 30 e9 c1 ba 79 3a 16 bb e8 59 9f 3a 4a a4 f1 b8
       -0.0014794227 -0.0022923036 0.0012157531 -0.00011522377
000010 42 c5 4b 3b 77 c8 88 bb c0 dc 17 bb 15 7c 88 3c
       0.0031092917 -0.004174288 -0.0023172349 0.01666073
000020 59 dd 7f bb 71 63 51 b9 c0 78 d4 ba 21 0b f1 ba
       -0.0039041846 -0.00019968838 -0.0016210303 -0.0018390157
000030 9e cb 51 bb b5 6e 81 bb 4e 1c 69 39 ce f3 9b bb
       -0.0032012234 -0.003949965 0.00022231156 -0.0047592884
000040 5a d3 dd bb ae 07 95 bb 55 1e 48 3a 0f 58 7c bb
       -0.00676958 -0.0045480346 0.00076339144 -0.0038504635
000050 6a 6c 4d ba 19 12 2c ba 7c d9 b8 bb b3 f5 d8 3a
       -0.00078362843 -0.0006563976 -0.0056411605 0.0016552716
000060 a8 79 9a 3b f0 3d 07 bc 90 e4 9c bb 98 8f 80 3b
       0.0047142096 -0.008254513 -0.004787989 0.0039233677
000070 09 dd 68 b9 6f b4 5a b9 c9 32 b4 bb 50 e6 a0 3a
       -0.00022207586 -0.00020857317 -0.005499218 0.001227567
000080 6c 58 8b 3a f3 d0 c0 3a 39 60 d2 3c f7 e6 4f 3c
       0.001063121 0.0014710709 0.025680648 0.012689344
000090 5b ae d9 3a 75 6b 5a 3c 10 ca 80 3a 4e 56 18 3b
       0.0016607748 0.013331284 0.0009825844 0.00232448
0000a0 b2 69 73 bb fb 24 58 3c 53 d6 c1 bb 35 7f b7 bb
       -0.0037141857 0.013192411 -0.005915442 -0.005599881
0000b0 20 45 e9 bb f0 12 a1 37 79 3c a5 b9 6f 31 6d 3a
       -0.007118836 1.9201514e-05 -0.00031516308 0.00090481987
0000c0 a9 71 03 3b 12 04 a2 3c 60 6b fa ba f4 28 2d 3b
       0.002005676 0.019777332 -0.0019105487 0.0026422115
0000d0 2b fd 8e 3c 55 7d a2 3a e9 8d 5d 3c ab 3d a7 bc
       0.017454704 0.0012396971 0.013522604 -0.020415148
0000e0 f2 9a 1f 3b cb 1e 91 3b 10 58 c6 be 6b 58 66 3c
       0.002435383 0.0044287196 -0.3873906 0.014059166
0000f0 8e cd 9d bb 7c a2 a6 be 12 2d 10 3d e8 7e 23 3c
       -0.004815764 -0.3254584 0.035199232 0.009978987
000100 54 6e 34 bc fb f3 24 3c e4 44 a1 bb f2 f3 93 3c
       -0.011012632 0.010067935 -0.0049215425 0.018060658
000110 3e e4 d2 3a ab 02 a7 bb 99 b4 13 3c 54 66 ea 39
       0.001608975 -0.0050967536 0.009015226 0.00044708198
000120 ef 4d 1e 3a e8 fa e0 bb 3b 26 c0 ba df c6 b1 bb
       0.00060388347 -0.006865848 -0.0014659831 -0.0054253186
000130 f2 84 47 3c 4b f5 e4 3a 66 86 16 bb 0c 49 8b 3c
       0.012177693 0.0017468123 -0.0022968291 0.017002605
000140 50 99 0d 3c 7d e7 ba ba 81 6d 22 bb 84 31 71 ba
       0.00864251 -0.0014259663 -0.0024784508 -0.0009200799
000150 c0 d7 36 b9 06 32 c7 bc a8 ac 94 bc 87 46 19 3b
       -0.00017437246 -0.024315845 -0.018148735 0.0023387985
000160 26 ba d7 bc cb 24 c8 bc 02 c7 40 3a 43 dd ad 3b
       -0.02633388 -0.024431607 0.0007353873 0.0053059175
000170 72 df c6 b9 45 5e e3 3b 02 c5 00 3c ca a0 ae 3b
       -0.00037931983 0.006938728 0.00785947 0.005329226
000180 8a 48 9a 3b f1 a0 8b 3a 28 f1 c8 3b a9 66 50 bb
       0.0047083544 0.0010652823 0.0061322637 -0.0031799471
000190 a5 df cf bb f3 4b 80 bb b0 2c 18 bb 1b dc a7 3c
       -0.006343799 -0.003915304 -0.0023219995 0.020490697
0001a0 6c d2 5b 3c 26 65 0d ba c8 2a 65 3c 00 0a 0c 3c
       0.013416868 -0.00053937954 0.013987251 0.008547306
0001b0 f7 07 49 bc e0 71 95 bc 86 d5 39 3d 9c 8f cd bd
       -0.012269965 -0.018242776 0.045369647 -0.10037157
0001c0 6d f0 2b bd 44 f2 5c bd 96 63 b6 bd b1 8e 10 be
       -0.041977335 -0.05394198 -0.08905713 -0.14116932
0001d0 2b a2 8c bd 25 7b 0a 3b 68 8f 3c bc 59 fe 39 b8
       -0.068668686 0.0021130529 -0.0115088 -4.4344317e-05
0001e0 80 47 8c bb e8 22 6e 3c 99 a3 82 bb 5e fd a5 ba
       -0.0042809844 0.0145346895 -0.0039867875 -0.001266401
0001f0 9c f3 23 3c 3f 30 b0 bb c8 2c 5c bb ce e0 3f bc
       0.0100068115 -0.005376845 -0.0033596028 -0.011711312
000200 54 d7 34 ba 17 f1 9e 3a fa ed a7 bb e5 ad 63 bc
       -0.00068985415 0.0012126294 -0.0051248046 -0.01389644
000210 8a f6 d9 3b dd aa ec ba 71 43 e5 3b d9 a8 2b bb
       0.006651704 -0.0018056292 0.006996565 -0.002619317
000220 2f 38 a7 bb 11 3f 30 3c 68 6e 1a bc 01 b1 03 bc
       -0.005103133 0.010757224 -0.009425737 -0.0080378065
000230 9d d5 33 bc cd 8f e3 3b 4f 25 54 3b b6 a1 d4 3b
       -0.010976222 0.0069446326 0.003237087 0.006489004
000240 10 1b 1b 3b ba 72 b5 3b a0 9d 69 bb f9 09 2b ba
       0.0023667254 0.005537358 -0.003564693 -0.00065246184
000250 d0 74 fa bb 76 57 99 3b a2 fa d6 3b b6 df cd 3b
       -0.0076433197 0.0046796156 0.0065606395 0.006282772
000260 93 80 ba 3a 29 fe 1f 3c 7c 28 b6 bb ad 23 1c 3b
       0.0014228992 0.009765186 -0.0055590253 0.0023824975
000270 f5 7f 61 3a d0 d7 dd 3a 8c 57 99 ba 6c 1a b5 bb
       0.0008602136 0.0016925279 -0.0011699065 -0.0055268314
000280 ed bc 22 3c d8 8b 1c 3c f4 fb 0e bb 8a f7 c4 bb
       0.009932739 0.009554826 -0.0021817656 -0.0060109543
000290 2f f1 97 3a cd f1 0d 3c 08 8f 2d 3d e8 53 49 3c
       0.0011592264 0.008663607 0.042372733 0.012288071
0002a0 a9 ab 22 3b 3c 77 9a 3c df 28 6d bb 85 13 a5 ba
       0.0024821556 0.018855684 -0.003618769 -0.0012594318
0002b0 8b 17 40 3b 5a 64 95 bb 6c e5 95 3b 36 90 15 3c
       0.0029310908 -0.004559082 0.0045744684 0.009128621
0002c0 fc 0f 63 3a c3 3f b3 3a dd e6 23 bc 54 fd 5e bb
       0.00086617447 0.0013675619 -0.010003773 -0.0034025507
0002d0 51 ef 36 3b f0 80 3f 3a 51 53 80 3b cb 63 ad 3a
       0.002791364 0.0007305285 0.003916182 0.0013228593
0002e0 77 be ef 3d ef 35 4c 3a 44 cf f6 3b e1 6e d1 3d
       0.1170625 0.0007790019 0.007532032 0.102262266
0002f0 9c 9f b0 3c 1f ec 82 ba f6 4e 8d bb 73 2c e2 3b
       0.021560483 -0.0009988582 -0.0043123914 0.0069022714
000300 f9 e0 38 3b e8 d8 72 3b 8d 51 07 3b 75 77 aa 3b
       0.0028210266 0.0037055556 0.0020647973 0.0052022287
000310 9c 39 35 3c b8 90 a1 39 34 b2 a7 ba 66 b5 aa ba
       0.011061098 0.00030816137 -0.0012794198 -0.0013024032
000320 70 57 88 bb 27 f7 17 b9 08 3f 69 bb 3f 3d b5 bb
       -0.004160814 -0.00014492554 -0.0035590548 -0.0055309827
000330 6a ad 73 39 52 d7 18 3d cf af 4a 3b ea 3a a1 bb
       0.00023238888 0.03731472 0.0030927544 -0.004920353
000340 a6 23 57 3b be 66 11 bb 6a 07 56 3a 20 d2 ca bc
       0.0032827645 -0.0022186483 0.0008164557 -0.024758399
000350 4b 81 01 3c c2 7c 3e 3c 9c ec 04 3b 54 72 93 3a
       0.007904361 0.011626424 0.0020282632 0.0011249282
000360 6c 18 38 bb 83 74 03 3b 3b d0 90 bb ed 22 3a 3b
       -0.0028090728 0.002005846 -0.0044193543 0.0028402165
000370 80 81 6c b9 cc ad 8a 3b f9 8f ab 3a ea 3b 44 bb
       -0.00022554956 0.004232144 0.0013089172 -0.0029942938
000380 5b 78 a9 3b 85 c6 ca 3c 3e 0d 48 bc b9 62 21 3d
       0.005171818 0.024752865 -0.012210188 0.03940079
000390 19 c6 1d bd 00 ab 2e bc 5b 48 5d bc 3b 8c fc bc
       -0.038519 -0.010660887 -0.01350602 -0.030828586
0003a0 e0 db 9c bd eb 75 9f bc 0d 60 ca 3c 22 3d 4f 3d
       -0.07659125 -0.019465407 0.024704004 0.05059541
0003b0 bb 70 86 3c 22 40 7f bd b8 f9 cb bd cb 1c aa 3d
       0.016411176 -0.06231702 -0.099597394 0.08306273
0003c0 24 93 52 bd f1 8f 6b be d4 40 a0 bd 9f 58 ad 3b
       -0.051409855 -0.23004128 -0.07824865 0.0052901055
0003d0 b9 eb 1c bb 42 df ff 3b d3 f5 a0 bb 8e 63 2e 3c
       -0.0023944213 0.007808597 -0.004912117 0.010643853
0003e0 74 b9 1c bc 3c be 75 ba e7 cc 8f 3c 71 29 6c 3b
       -0.0095657 -0.00093743554 0.01755376 0.0036035443
0003f0 2f 3b f0 3b 9d fb f7 3c 94 cd d3 3b 26 29 0b bb
       0.007331274 0.030271346 0.006463716 -0.0021234243

block_1.c3_r.eval_conv.bias f4 [28]
000000 fb 51 cf bd 26 44 09 be d1 f7 e0 3a f2 74 c8 be
       -0.101230584 -0.13404903 0.0017163699 -0.39151722
000010 18 f2 1e c0 80 d2 09 c0 2c f7 d4 bd 99 5f 0c 3f
       -2.4835262 -2.153473 -0.10398707 0.5483337
000020 43 4a 97 bf ac 0b f7 3c 9e 61 af 3d 6c 55 48 3e
       -1.1819538 0.030156933 0.08563541 0.19563836
000030 30 36 59 bd b8 97 b7 bf e7 60 6a be c0 79 65 bd
       -0.053030193 -1.4343176 -0.22888528 -0.056024313
000040 70 19 99 3b 8c 71 b1 bd 0a e6 ab be e6 49 9d be
       0.004672222 -0.086642355 -0.33573943 -0.30720443
000050 f8 7b ba bd 22 cc 2a be 5c 4b 9e 3e e7 f7 06 3e
       -0.091056764 -0.16679433 0.3091687 0.13180505
000060 19 8d 56 bd a2 f6 c9 3f 78 c6 37 3e c2 e8 d2 3e
       -0.052380655 1.5778391 0.17946804 0.41193205

block_2.c1_r.eval_conv.weight f4 [28, 28, 3, 3]
000000 50 d4 01 c0 80 64 33 c1 4c 72 bd be 79 f7 9d 3e
       -2.0285835 -11.212036 -0.37001264 0.3085287
000010 68 8d 65 3e 24 da 43 bf 80 b1 2d 3d a8 78 b9 bf
       0.22417223 -0.7650473 0.042405605 -1.4489946
000020 8e 04 ee 3e b5 d1 89 bf 48 9b ba c0 ac 69 6c bf
       0.4648785 -1.0767123 -5.831455 -0.9234874
000030 64 b6 ea 3f 20 69 02 41 6a fe 88 be 2c ba 2d bf
       1.8336911 8.150665 -0.26756603 -0.678622
000040 13 13 2d 40 81 b1 86 bf d3 53 57 bc 68 82 c2 c0
       2.7042892 -1.052292 -0.013142544 -6.0784187
000050 c9 38 44 40 ec f9 8a 3e d4 74 ff 40 0e 50 57 c0
       3.065966 0.271438 7.9830112 -3.3642612
000060 32 e9 e7 bd fe c6 df bf b5 92 56 3f b9 a3 77 3e
       -0.11323775 -1.7482603 0.8381761 0.24183549
000070 58 d0 5a 40 d5 db 31 be 18 7a 81 be 66 e1 31 c0
       3.4189663 -0.17369016 -0.25288463 -2.7793822
000080 2f 67 da 3e 20 1e 77 be 4c 2f 94 bd 5f 89 6d 3e
       0.42656848 -0.24132586 -0.07235584 0.23196934
000090 58 bc 46 3e c3 2e 0f c0 10 6e 1b 3e d4 7a c3 bb
       0.19407785 -2.237229 0.15178704 -0.00596557
0000a0 bd fe 24 40 26 a9 12 be 06 2a 65 bd a5 bb 40 bf
       2.578048 -0.14322338 -0.05594828 -0.7528632
0000b0 5d dd bc 3d 5c 00 24 bf da 38 fd 3f e9 a3 7f 3e
       0.09221909 -0.6406305 1.9782975 0.2496487
0000c0 5f 4a 54 3f 17 cd 1e 40 24 4d 5e 3e 49 fd 9e 3e
       0.8292598 2.4812677 0.21709114 0.31052616
0000d0 f1 c5 8b bf 6d 56 8b 3e db 7e 4d 40 9d 16 96 41
       -1.0919782 0.27214375 3.2108676 18.761042
0000e0 ff 83 ad 3f 68 f8 5a c0 0c c6 ac c1 46 b0 3b 3f
       1.3555907 -3.4214115 -21.596703 0.73315847
0000f0 08 c8 c5 3d fe c2 b6 3f 5a 56 04 bf 22 79 96 bd
       0.096572936 1.4278257 -0.5169426 -0.07347323
000100 ac 7d ff 3f db 48 61 3e 54 b7 04 bf b4 3c 64 3e
       1.9960227 0.22000448 -0.51842237 0.22288781
000110 ad a9 3a be 51 d7 c9 3e 3a 75 ad 3d 01 c4 e9 be
       -0.18228789 0.39422086 0.08469625 -0.45657352
000120 15 e6 6e bd e9 fb 62 be d8 8d 4e 3c 22 9a b0 bc
       -0.058324892 -0.22166409 0.01260706 -0.021557871
000130 3d 12 13 3e e3 98 03 be 91 f4 dc 3d dd d8 33 3d
       0.14362426 -0.1285129 0.10788835 0.04390799
000140 55 9a d8 bc 82 f9 88 c0 fb 61 7e c1 9e cd 85 3c
       -0.026440779 -4.2804575 -15.898921 0.016333397
000150 cd 32 ad bf fe 9a 3c 41 ce 01 2a c0 60 9a bd 3f
       -1.3531128 11.78784 -2.6563601 1.4812737
000160 93 6f 5b 3e a4 97 0e bf ec d3 76 bd 2f 20 c1 3f
       0.21429281 -0.55700135 -0.0602607 1.5087947
000170 bb 40 1f bf 61 6e b6 3e de f0 35 bf 2b 2c 9c 3e
       -0.62208146 0.35631087 -0.7107066 0.30502447
000180 af 47 1e bf bf be 34 bf e0 0c 4c 3d ff 9a 13 c0
       -0.6182813 -0.70603555 0.049816966 -2.3063352
000190 60 ab a8 c1 a8 ef c2 3e 5a 66 d9 be 72 26 bb 41
       -21.08368 0.38073468 -0.424609 23.393772
0001a0 26 69 07 3f e5 d9 d4 be ea 30 2f 3f e9 05 32 bf
       0.5289482 -0.4157249 0.6843401 -0.6954027
0001b0 bb f2 ab 3d 4f fa 11 bf d6 a5 14 bf 87 44 00 3f
       0.083959065 -0.57022566 -0.58065546 0.50104564
0001c0 a7 53 3d 3f 6e d0 6c 3e cb 83 12 3d ca 5b 03 be
       0.7395577 0.23126385 0.03577022 -0.12827983
0001d0 49 c2 0f bf cb a8 50 3d 64 cd 1c c0 49 f0 07 c0
       -0.5615583 0.050942224 -2.450036 -2.1240408
0001e0 a6 73 f3 bc fe bc c3 bf 95 fc 94 3f 01 20 a3 3e
       -0.029718231 -1.5292051 1.1639582 0.31860355
0001f0 b2 cf eb 3f e0 86 5c be a5 c1 ae bf 14 64 38 c1
       1.8422759 -0.21535826 -1.3652846 -11.524433
000200 f3 78 41 bf df a3 18 40 db 75 67 41 78 46 df 3e
       -0.7557518 2.385002 14.466273 0.4360845
000210 e6 5c 06 3e 7c 58 e0 bf 70 88 4e 3f cf b7 32 3f
       0.13121375 -1.7527003 0.8067694 0.6981172
000220 da 86 c3 40 a7 7f c5 bf 1f 83 d9 be 46 15 ef c0
       6.1102114 -1.5429581 -0.4248285 -7.471347
000230 81 0b 3d 3f ac 0d aa be 3e 45 23 3f 7f eb 02 3f
       0.7384568 -0.33213556 0.6377753 0.5114059
000240 d1 56 ad 3f 2e c8 5a 41 80 13 47 3f e0 e5 81 bf
       1.3542119 13.673872 0.7776413 -1.0148277
000250 32 09 10 c1 3c 58 d8 3f 1f ae 36 bf 0a 9e 43 c0
       -9.002245 1.6901927 -0.7135944 -3.056521
000260 5e 64 cc 3e a1 dc 9c 3f 08 86 de bf 22 a1 8a c0
       0.39920324 1.2254831 -1.7384653 -4.3321695
000270 55 e0 e6 be 00 f5 31 40 0a 35 26 c0 03 0b b2 bf
       -0.45093027 2.7805786 -2.5969872 -1.390961
000280 c6 60 05 be 00 44 2b bf 88 6d 7b 3f e6 c1 b4 40
       -0.13025197 -0.66900635 0.98214006 5.6486692
000290 58 6d 04 3d c9 40 bb bf 42 71 df c0 c5 4b d6 3e
       0.03233084 -1.4629146 -6.9825754 0.41854683
0002a0 8e 38 f2 3e ff 3b 0f 3f f9 b6 f6 3e 3b 1e 13 bf
       0.47308773 0.5595092 0.48186472 -0.57468003
0002b0 d7 59 f0 3f 02 32 81 bd bf 24 61 be af 43 ac 3f
       1.8777417 -0.06308366 -0.21986674 1.3458155
0002c0 37 93 4b be d3 95 2b 3c 17 b2 57 bf 96 a0 24 be
       -0.19880377 0.010472733 -0.8425612 -0.16076884
0002d0 c3 47 48 bd 36 f3 22 3f 55 fd 0f 3e 62 88 24 3f
       -0.048896562 0.6365236 0.14061482 0.64270604
0002e0 8a df e4 bd 1d 26 00 be b6 f8 f5 bd 2c cc f1 3c
       -0.11175449 -0.12514539 -0.120103285 0.029516302
0002f0 dd 26 40 3a 51 b5 e1 be 57 14 44 3e 88 ce 24 be
       0.000733001 -0.44083646 0.19148384 -0.1609441
000300 a9 5e 9f be 9c de 29 bf a6 76 53 3e 4b aa a7 be
       -0.31126907 -0.663553 0.2065073 -0.3274711
000310 c5 ad b1 3e 00 46 16 3c fb ed 5f bf 70 a2 98 c0
       0.34702888 0.009171963 -0.87472504 -4.769829
000320 e6 53 5e bf 66 3b c8 3f 04 27 a8 40 97 0b e4 3e
       -0.8684677 1.5643127 5.2547626 0.44540092
000330 93 26 11 bf c2 43 4e bf 2c eb 08 bf 6c 80 49 bf
       -0.56699485 -0.8057214 -0.53483844 -0.7871158
000340 c5 93 92 c0 c7 64 9c be 9e 83 84 3f a7 b9 94 40
       -4.5805383 -0.30545637 1.0352666 4.6476626
000350 5d fa 14 3f bf ef 22 3e 24 5a 7d be a6 0d d8 3e
       0.58194524 0.15911768 -0.24741417 0.42197913
000360 93 92 a0 c0 84 94 b2 c1 5a 3d 05 c1 5e 2a e8 be
       -5.0178924 -22.322517 -8.327478 -0.45344824
000370 84 fa 46 41 b8 a8 69 3e 6e 14 56 bf 15 d1 8d bf
       12.436161 0.22818267 -0.83624923 -1.1079432
000380 64 fb 38 c0 af c0 0f be b3 77 b3 40 75 75 40 3f
       -2.8903437 -0.14038347 5.6083617 0.75179225
000390 ef 0b db be 22 f7 ae c0 0c 8a 22 bf 22 7e ed be
       -0.42782542 -5.4676676 -0.6349189 -0.46385294
0003a0 aa a6 99 3e 11 e4 a0 be 41 32 e8 3e 4b 77 fd be
       0.30009967 -0.31424 0.4535084 -0.49505076
0003b0 33 1c 43 3e 38 8b ac be ca 14 b0 be 66 1e 8e be
       0.19053726 -0.33699965 -0.3439086 -0.27757567
0003c0 7e 27 92 bc 73 2a b2 3e 5a b4 0f 3e 8e 06 01 3f
       -0.017841097 0.3479801 0.14033642 0.50400627
0003d0 2a f4 27 40 e4 8b 78 3e c2 2d 90 bf fa b5 3f bf
       2.6242776 0.24272114 -1.1263964 -0.7488705
0003e0 5a 22 0b bf ef a2 87 be 02 34 9f 3f e4 fc 22 be
       -0.5434929 -0.26491496 1.2437747 -0.15916783
0003f0 03 0e ec 3f 86 d2 0a c1 c1 c3 59 c0 59 81 86 40
       1.8441776 -8.676397 -3.4025729 4.2032895

block_2.c1_r.eval_conv.bias f4 [28]
000000 f7 64 d0 be 7f 03 d5 3e 3f 6d 0d 3e d2 50 9f bd
       -0.4070203 0.4160423 0.13811205 -0.07779087
000010 a4 2f 9f 3f 75 33 ee 3e da dd 28 bf d8 5e 02 bf
       1.2436414 0.46523634 -0.6596352 -0.5092597
000020 99 e7 c1 3e a8 45 fa 3e 14 eb d1 3f 4a d6 a7 bd
       0.37872007 0.48881269 1.6399865 -0.08195169
000030 6b 2e e1 3e 12 06 22 3f 4c 5f e7 3e e3 8c 82 3f
       0.43980727 0.6329051 0.45189893 1.0199245
000040 48 a9 f2 bf b8 7f 88 bf 88 b2 1a bd 30 7d 12 40
       -1.895791 -1.0663977 -0.037767917 2.2888908
000050 30 23 ef 3e 8c 40 30 3d 11 c4 9a bf b3 22 9e bd
       0.46706533 0.043030307 -1.2091085 -0.07721462
000060 7a 81 99 be 86 3b 30 3e 2c 41 a7 3e dd a2 51 3f
       -0.29981595 0.17210206 0.3266691 0.81889135

block_2.c2_r.eval_conv.weight f4 [28, 28, 3, 3]
000000 dc 4e bb bc 4f 52 0a 3b bc aa 8f bc e5 95 9f bc
       -0.022864752 0.0021106189 -0.017537467 -0.019480655
000010 b8 9b 25 bd b2 8a 05 bd e5 8d e1 bc e8 c4 83 3d
       -0.040431708 -0.032602973 -0.02753348 0.06434041
000020 e9 46 d9 bc dd f5 86 bc 37 b5 a7 bc fe 3d a8 bc
       -0.02652307 -0.016474659 -0.020472152 -0.020537373
000030 e2 c4 56 bd e7 f9 8b be bc 8a d2 bc 4a 4e 4f bc
       -0.052433856 -0.27339098 -0.02570092 -0.012652943
000040 58 f5 cf bc 17 5c a1 3c a2 31 9a 3d 34 7d d5 3d
       -0.025385544 0.019697232 0.07528998 0.10424271
000050 9a 9e bc 3d 2d 59 0d 3d 45 b4 26 3d b7 11 75 3d
       0.09209938 0.034508873 0.040699262 0.059831347
000060 1c f1 c9 3b 7f d0 8d 3c 61 71 ac 3c dc fa 26 bd
       0.0061627757 0.017311333 0.021050157 -0.040766582
000070 b7 0d e7 bd 90 95 8c bd fc 48 d8 bd 8d 11 50 3e
       -0.11281913 -0.06864464 -0.10560796 0.20319195
000080 e9 ce a8 3b 93 76 a4 bd bd f2 6a bd fd 3a 0b bd
       0.0051516187 -0.08030429 -0.0573604 -0.033991802
000090 96 07 0a bd cf 4b 79 bd ac 86 1a 3e 23 c4 d9 3d
       -0.03369864 -0.060863312 0.15090436 0.10633113
0000a0 66 10 d8 3e 83 e7 5c 3f 6f 84 16 bd 8a c1 eb bd
       0.4220001 0.8629076 -0.036747392 -0.11511524
0000b0 e9 e3 30 3d 61 d0 2f 3c a6 1a df bc fe cb 27 3c
       0.043186102 0.010730834 -0.027234387 0.010241507
0000c0 46 da bf 3c fc 09 42 3d 05 56 52 bc 82 91 1c 3b
       0.02341951 0.047372803 -0.0128378915 0.002389044
0000d0 e8 91 1c 39 5b e1 b5 3c 74 cb 06 3e 38 3c 2b 3e
       0.00014931674 0.022202184 0.13163549 0.1672219
0000e0 dc e1 97 3e dc 00 ee 3d 08 17 74 bc ba 3b bc bd
       0.29664505 0.11621258 -0.014898069 -0.091910794
0000f0 5d 38 25 3d dd bc 03 3e b6 eb 1c 3e 39 a0 c1 be
       0.040336955 0.12865014 0.15324292 -0.37817553
000100 6e 57 0d bd 17 4b 0f bd db f8 dd be 18 2d e8 be
       -0.034507208 -0.03498372 -0.43353924 -0.45346904
000110 70 5f 73 be d2 71 2b be dc 8c de 3d 9d 0d 70 bd
       -0.23766875 -0.16742638 0.108667105 -0.058606733
000120 12 e4 83 3c 90 57 d5 bc 9d 6a 1e bd d2 68 4e bd
       0.016099963 -0.02604273 -0.038675893 -0.050392933
000130 ea 35 69 3d 9c 48 46 bd 81 17 08 3d 7f 6a bd 3c
       0.056936182 -0.04840909 0.03322554 0.02312207
000140 6d 70 a2 bc fa 25 39 be 47 62 cb be d8 7e 92 be
       -0.019829 -0.18080893 -0.39723417 -0.286124
000150 14 30 b6 3c 06 fd 8e be 21 27 81 be 79 3b a3 3b
       0.022239722 -0.27927417 -0.25225165 0.004981455
000160 ec a6 1b be 6a cc 92 bc de d6 09 3b 40 4e 41 3d
       -0.15200394 -0.017919738 0.0021032612 0.047193766
000170 0e 49 07 3d ac 06 1b 3e 53 66 b3 3e 2a 37 a2 3c
       0.033028655 0.15139264 0.35039005 0.019801695
000180 41 a3 08 3d 54 f8 31 3e 11 d1 6c 3e 28 b5 c3 ba
       0.033358816 0.17379886 0.23126628 -0.0014931308
000190 b6 22 e4 3a 1d d0 59 bc 68 36 ab 3c 31 04 10 bc
       0.0017405364 -0.013294247 0.020899966 -0.008790062
0001a0 a2 1d 5d bd 75 3e 0b 3c 0e e3 60 3b c2 ba 22 bc
       -0.05398334 0.008498778 0.0034315023 -0.009932222
0001b0 50 5e 1c bd 5e fb 9f bd 44 6c ae bc 20 77 0f 3d
       -0.03817588 -0.07811616 -0.02129186 0.035025716
0001c0 9c 7a 09 3f 51 b7 b2 3c 66 25 7b bd ee 81 a3 bd
       0.5370271 0.021815928 -0.061314963 -0.079837665
0001d0 46 32 1a bd 4c e8 5e be 2d 9f b0 be 7c 05 6c be
       -0.0376456 -0.21768302 -0.3449644 -0.23048967
0001e0 53 4b 0a be 7c ae ef 3b e7 fc 0b be 32 aa cb bd
       -0.13505296 0.0073145013 -0.13670693 -0.099445716
0001f0 22 e1 aa bd 6a f6 9a bd e7 03 13 3d a4 b6 9e 3c
       -0.08343722 -0.07566531 0.035892393 0.0193742
000200 b2 81 32 3d 30 a3 92 3d a2 f7 93 be 51 99 03 3e
       0.04358072 0.07160032 -0.28899866 0.12851454
000210 ab fe 5d 3d 41 7c d6 3c e0 20 2a 3d c8 34 c0 3d
       0.05419795 0.026182296 0.04153526 0.09385067
000220 d0 f7 06 3e e5 50 2c 3e 43 63 04 3c 0e 7b 72 be
       0.1318047 0.16827734 0.008080306 -0.23679754
000230 b6 71 9a 3d 44 8f fc bd a9 98 1e be 96 86 d1 3c
       0.0754122 -0.12332013 -0.15487923 0.02557687
000240 03 6a a2 3c ae 91 dc 3a 96 ac 86 bc fd 71 95 bc
       0.019825941 0.0016828084 -0.016439717 -0.01824283
000250 46 fa b1 bd 55 f7 85 3d a7 c2 24 3c 3a 04 f4 bb
       -0.08690314 0.065413155 0.010056174 -0.007446793
000260 a0 99 76 3b 6a 4e df 3d 18 2a 61 3e fd 7e 55 3e
       0.0037628189 0.10903628 0.21988714 0.20849223
000270 76 47 19 3d 24 89 e4 bd 08 20 ec bd 56 54 20 3e
       0.037421666 -0.1115897 -0.11529547 0.15657172
000280 7f 1f 5a 3e 2b 6a ae 3d 37 3c 8a bd db ba 9d bd
       0.21301077 0.08516344 -0.06749766 -0.077016555
000290 ed a4 4a bd 9d b3 07 3b dd 23 25 3f 43 27 4c bb
       -0.04947369 0.0020706423 0.6450785 -0.0031151331
0002a0 62 20 97 bd 2d 8e b1 bd f2 85 54 bd fb 9c 8c 3c
       -0.073792234 -0.08669696 -0.051885553 0.017164698
0002b0 7e c6 eb 3d 0a 06 0f 3c f4 5b f1 3d 47 a7 ef 3d
       0.11512469 0.008729467 0.11785117 0.117018275
0002c0 c0 26 a3 bd fc 76 79 3b 84 ff 58 be bd 38 22 3e
       -0.07966375 0.0038065305 -0.21191221 0.15841956
0002d0 ef b6 17 be a8 e5 1d be c7 48 0f 3d 9e d3 01 bd
       -0.14815877 -0.15419638 0.034981515 -0.031695955
0002e0 5f c4 92 be 27 d4 b7 bd aa f7 2c be a1 e5 38 be
       -0.28665444 -0.08976012 -0.16891351 -0.18056346
0002f0 62 8e b7 3d 1b 36 b4 bb 3c a2 72 bd e4 10 10 bd
       0.08962704 -0.005499614 -0.05923675 -0.03517236
000300 24 ac 21 bd 42 ab 00 be 66 49 95 bd dd bd 91 3c
       -0.039470807 -0.1256533 -0.0728939 0.01779073
000310 ec 5a 62 bd 93 9e bc bc 3f f5 d8 bd 7d 08 d5 bd
       -0.05526249 -0.023024833 -0.10593652 -0.1040201
000320 36 f9 2c be 81 50 5b bd 1a 4e 82 be dd cd d7 3d
       -0.16891941 -0.05354357 -0.25450212 0.10537312
000330 a6 0e 2e 3e c3 26 b8 3c fe ac c0 be 05 6f f8 bc
       0.16997775 0.02247942 -0.37631983 -0.030326376
000340 b9 61 20 bd f3 58 4e bd 71 77 ee bc 6a 05 00 3d
       -0.039155696 -0.050377797 -0.029109688 0.031255163
000350 fc 8b a4 bd c8 3c 03 bc 9e 4c 5f bd 9d 94 1d bd
       -0.080345124 -0.008010097 -0.054516427 -0.038471807
000360 34 e0 46 3d 64 3c dc 3d 07 5d a9 3d 62 d9 3e 3c
       0.04855366 0.10753706 0.08269697 0.011648508
000370 f6 8b 74 3d 4a 87 8d 3d b7 bb 08 3b e5 64 6f 3d
       0.05970379 0.0691057 0.002086384 0.05844583
000380 08 82 99 3a 09 79 34 bd 12 86 98 bd 07 e5 01 be
       0.0011711726 -0.04406074 -0.07447447 -0.12685023
000390 bc d6 24 3d ea f8 a9 3e d2 ab fa 3c c3 43 a9 bd
       0.04024385 0.3319772 0.030599508 -0.08264878
0003a0 02 b7 ef bd ab 8e c9 bd f8 fb b0 39 92 62 7e 3b
       -0.11704828 -0.09841665 0.00033757067 0.0038816077
0003b0 d3 2b 04 bd 20 01 84 bc 62 3c e8 bb 2b 10 b7 bc
       -0.032268357 -0.016113818 -0.0070872763 -0.022346577
0003c0 09 29 80 3c 32 08 07 3c cc a9 be bb 6c 69 03 be
       0.015644567 0.0082417 -0.005818581 -0.12833184
0003d0 77 e9 30 be 78 38 47 be dd 0d 8e be f6 d7 50 3f
       -0.1727656 -0.19455135 -0.27744952 0.8157953
0003e0 9e d3 07 bf 83 c3 63 be 8c c2 69 be 86 25 34 be
       -0.5305728 -0.2224255 -0.2282812 -0.17592439
0003f0 9b 9a a5 bb 65 20 96 bb 7c 41 aa 3b 1f 83 03 bb
       -0.005053831 -0.0045814984 0.0051957946 -0.0020067168

block_2.c2_r.eval_conv.bias f4 [28]
000000 ea ef 21 bf 0e 6d d4 3f 81 61 4c c0 f8 e5 6c bf
       -0.63256705 1.6595781 -3.1934512 -0.92538404
000010 fa 96 23 be fe 31 9b be 40 38 5c 3b 49 79 b0 3f
       -0.15975562 -0.3031158 0.0033602864 1.3787013
000020 ab 47 96 3f a4 86 bb 3e be 35 77 3e a2 26 a1 40
       1.1740621 0.3662616 0.24141595 5.035966
000030 df eb 31 3f 7c 19 46 40 e2 7c db be 9b d8 28 3f
       0.69500536 3.0953054 -0.42868716 0.65955514
000040 7e ed 08 bd cc 20 1f bf 83 6d 81 3f 61 4b 6f 3f
       -0.033429615 -0.6215942 1.0111545 0.93474394
000050 ad 1d 3b 40 72 f9 2b c0 ab 5c 61 3f 3c 69 fe bd
       2.9236863 -2.6871 0.88032025 -0.124224156
000060 fb cf 8b bf 2a 07 bc 3f 00 4f a8 3e 1d 7d 11 40
       -1.0922846 1.4689686 0.32872772 2.2732613
