model_zoo/team38_ESRNet.pth (torch, 563320 bytes, 46 tensors)

conv_1.eval_conv.weight f4 [26, 3, 3, 3]
000000 de 57 05 bb 38 ff 79 3b c4 bc c7 39 bc 76 bb 3b
       -0.0020346562 0.0038146507 0.0003809688 0.0057209413
000010 1e 0f ac 3d ab 59 2d bb 06 44 37 bb ca ab 16 3b
       0.08401321 -0.0026451151 -0.002796413 0.0022990578
000020 ac b1 0a bb fe b7 47 ba af 43 7d ba f5 80 da ba
       -0.002116303 -0.00076186645 -0.000966127 -0.0016670512
000030 ec c4 62 ba 0e 9a 34 3d a1 60 d4 3b 96 cc 93 b9
       -0.00086505595 0.04409223 0.0064812456 -0.00028190453
000040 7e ac 1d ba e4 c4 bb 3a 51 bb 29 3a c2 8a bc 3a
       -0.0006014778 0.0014325646 0.00064747507 0.0014384615
000050 43 17 0a 3b 44 3c 34 3a b0 a1 0c be 72 a3 08 bb
       0.0021070994 0.00068754354 -0.13733554 -0.0020849374
000060 18 a2 74 3b 1d c8 55 bb 40 85 ec 3a 47 aa 03 3b
       0.003732806 -0.0032620498 0.0018045083 0.0020090507
000070 dc 0c c4 ba 9b e7 49 ba 7f 23 9d 3b 00 14 15 39
       -0.0014957446 -0.00077020534 0.004795491 0.00014217198
000080 55 44 13 bb 32 8a a6 3a 72 9b 49 bb f4 94 82 ba
       -0.002247115 0.001270598 -0.0030762819 -0.0009962604
000090 3e ae b3 ba 57 4c 8e ba 70 29 14 3b 91 df e4 bb
       -0.0013708544 -0.0010856491 0.0022607706 -0.006984659
0000a0 00 f1 e0 3a 98 b3 e8 3a 7b 6d 6a bb 92 ea 90 3b
       0.0017161667 0.0017753718 -0.0035770822 0.004422494
0000b0 4d de fe 3a 74 61 c5 3a 96 95 01 3b 9f a7 ea b9
       0.0019444913 0.001505895 0.0019772998 -0.00044756845
0000c0 0c f0 dc ba f0 41 38 39 fa 11 36 ba 5e 41 9a 3b
       -0.0016856208 0.00017572171 -0.0006945428 0.0047074994
0000d0 10 0d 19 bb 98 e0 cb ba a2 36 3d ba b1 31 b5 bc
       -0.0023353733 -0.0015554605 -0.0007217919 -0.022118421
0000e0 18 af 9e 3a 96 da d1 bc 8a 95 b6 3d 0c a3 b0 bc
       0.0012106625 -0.025616925 0.08915241 -0.021562122
0000f0 5b 77 aa ba 77 88 86 bc ad 1b a9 b9 7f 7a ad ba
       -0.0013005541 -0.016422493 -0.00032254812 -0.0013235359
000100 60 7f dc bc e7 45 df bb ce 55 eb bc f4 73 e8 3d
       -0.026916206 -0.006813753 -0.028727438 0.11350241
000110 ef 37 bc bc 74 27 4e 3a 90 f2 9c bc 76 39 3b 38
       -0.02297589 0.00078641553 -0.019158632 4.463779e-05
000120 e0 a9 1d 3a cd e5 9f bc 36 ac 81 ba 96 b5 88 bc
       0.0006014388 -0.019518757 -0.0009893242 -0.01668815
000130 24 85 aa 3d 3b 7a 7b bc 09 c5 4a 39 67 4a ae bc
       0.08326176 -0.015348966 0.00019337623 -0.021275712
000140 a4 8f 14 ba 96 b4 dc ba a5 7a 1d 3b 46 12 26 3b
       -0.0005667156 -0.0016838487 0.00240294 0.0025340482
000150 38 48 c6 3a a8 19 83 bc 15 69 73 ba ea 6c f1 3a
       0.0015127724 -0.016003445 -0.0009285373 0.00184193
000160 05 e6 13 3b 25 f3 20 bb 5a fa 40 3b 92 78 9a ba
       0.0022567522 -0.0024558988 0.0029446096 -0.00117852
000170 33 58 b7 bb 79 65 85 3a 74 10 98 3b 57 f0 5a 3b
       -0.005595231 0.0010177336 0.0046406332 0.0033407414
000180 b4 81 e9 ba 3a f6 98 37 3e 45 56 3b 4f 68 63 b9
       -0.0017815144 1.823447e-05 0.003269508 -0.00021687265
000190 17 a1 81 3a e7 63 08 3b db cc 83 bb 08 0c 28 3c
       0.0009889927 0.00208115 -0.0040222234 0.010256775
0001a0 4d 0b 80 bb af 12 09 3a 1e 6b b8 ba 73 d0 24 b9
       -0.003907597 0.00052289193 -0.0014070009 -0.00015717912
0001b0 89 e5 98 37 0c b0 35 3b 81 4c 80 bb ab 8c 85 bb
       1.8226698e-05 0.002772334 -0.00391537 -0.004075607
0001c0 c0 ff 1b 3b e3 fc 0b 3b 01 df 26 39 4b 23 24 ba
       0.0023803562 0.002136045 0.00015914069 -0.00062613626
0001d0 c7 30 36 3a 5d 83 11 3a 37 b2 12 bb 43 de 0e 3b
       0.00069500174 0.00055508857 -0.0022384056 0.0021799959
0001e0 34 5c 74 ba 70 51 ee 3a f9 93 0e bb 63 95 c9 3a
       -0.00093216007 0.0018182229 -0.002175568 0.0015379604
0001f0 e6 1c 10 ba 26 7d 25 ba e5 4e c6 39 3a 12 92 3a
       -0.000549747 -0.0006312899 0.00037824284 0.0011144348
000200 4d ed 03 3b 07 84 40 3b 00 3f cf bb 35 73 e8 b9
       0.0020130456 0.002937557 -0.006324649 -0.00044336324
000210 6c 0a 9a 39 4c 98 2c 3a 27 70 28 3a ed ef 8e 3a
       0.00029380934 0.00065839733 0.00064254034 0.0010905244
000220 ae f1 c3 bc 64 a8 00 3a c4 d6 74 bc 54 53 63 3e
       -0.023918953 0.00049079047 -0.014943782 0.22199756
000230 d7 c4 62 bc 41 6f e1 ba ea fc 49 bb 34 38 69 bb
       -0.013840876 -0.0017199294 -0.0030820915 -0.0035586478
000240 1f 0c a0 3b f7 65 aa 3c 31 53 cb 3b b9 70 74 38
       0.0048842574 0.020800574 0.0062049855 5.8279114e-05
000250 a5 bf 99 be 71 99 87 bb b7 ef c6 3b 5b 14 bc bb
       -0.30029026 -0.0041381647 0.0060710567 -0.0057397312
000260 e7 78 18 3c 04 19 5e bb df 7e 6d bb 30 93 86 bb
       0.009306169 -0.0033889422 -0.003623895 -0.0041069016
000270 37 28 2f 3c a4 75 b5 3d 04 e1 84 3c 30 1b a1 bb
       0.01069074 0.08860329 0.016220577 -0.004916571
000280 1d e4 03 3c a8 f2 e5 bb 77 93 2e 3b ae 77 8e ba
       0.008049992 -0.0070174523 0.002663819 -0.0010869408
000290 93 5b 04 bb e8 19 27 bb 10 41 82 bb 1d 5f aa 3b
       -0.0020196184 -0.002549762 -0.003975041 0.0051993267
0002a0 75 80 85 3b b6 14 aa bb e8 f9 37 ba e9 3f 0a bb
       0.004074151 -0.005190457 -0.0007018135 -0.0021095222
0002b0 1b e4 b5 b9 1f a1 5d 3b af 11 3c bb 40 a7 49 3c
       -0.00034692962 0.003381796 -0.0028697064 0.012307942
0002c0 a8 40 7f ba a1 82 29 bc 84 32 2d 3c af 53 b2 bb
       -0.00097371126 -0.010346086 0.010571126 -0.005442105
0002d0 53 c5 36 3a 9f c8 35 3b 5f 07 6a bb d7 6d a0 3b
       0.00069721526 0.0027737988 -0.003570996 0.0048959064
0002e0 d4 77 45 bc 25 3d 03 3b 5f 77 7f 3b 76 b3 38 bb
       -0.012052495 0.0020025459 0.0038981063 -0.002818314
0002f0 0a 06 0f 3b 97 ac 8c 3a 5a ee 2c 3b bd 82 85 bb
       0.0021823668 0.0010732588 0.0026387186 -0.004074423
000300 39 9d af 3b 00 1c 04 bc d4 81 db 3a 3c 92 b8 b8
       0.0053593186 -0.008063316 0.0016747066 -8.801042e-05
000310 98 52 a7 3b d5 0a a6 ba d0 e7 88 bb 37 7f 30 3b
       0.0051062815 -0.0012668023 -0.004178025 0.0026931295
000320 ad 85 6c 3a ee 4f 51 bb 00 c5 77 3b 61 4b f6 3a
       0.0009022605 -0.003193851 0.003780663 0.0018790775
000330 ac ff ed bb 41 70 2c 3b 47 60 e6 b9 ff 88 ab 3a
       -0.0072631445 0.0026312026 -0.0004394075 0.0013087093
000340 df 69 d2 ba b8 39 f7 3a e9 4a ee 3a 00 ae 16 bb
       -0.001605328 0.0018861806 0.0018180284 -0.0022991896
000350 bc 3d 4e b9 ba 77 b1 3b c5 c4 72 bb 9f 63 16 3b
       -0.00019668689 0.005415884 -0.0037043553 0.0022947562
000360 e6 b1 5b bb e5 d9 f5 ba 59 db 08 ba 67 38 fd 39
       -0.0033522784 -0.0018756954 -0.00052206736 0.00048297943
000370 80 b9 6b 3b e3 22 cd 3a 31 2f 91 bb 6d 17 da 3b
       0.003596872 0.0015650656 -0.0044306745 0.0066556246
000380 e3 55 71 bb 56 a6 8e 3b 03 5c 63 bb 15 db 6e 3a
       -0.0036824874 0.004353325 -0.0034692294 0.0009111625
000390 f7 96 56 bb 00 7a 9f 3b 2b 60 74 bb 90 c8 ea 39
       -0.003274379 0.0048668385 -0.0037288766 0.0004478139
0003a0 26 20 06 bb c6 19 1a 3b a2 e1 12 bb 00 b5 6c 3b
       -0.002046594 0.0023513897 -0.002241232 0.0036118627
0003b0 c5 7b dd 3a 0f b7 4f 3a 00 bf 37 bb 9d 95 d5 39
       0.0016897848 0.0007923701 -0.002803743 0.00040737996
0003c0 1f 87 39 3b fc e3 00 bc 1f cd 4b 3b 6f 02 e0 b8
       0.0028309298 -0.007866856 0.0031097603 -0.000106816056
0003d0 fc fd a9 3c 23 76 b4 bb af 80 28 3d 90 b0 0a be
       0.020750992 -0.005507247 0.041138347 -0.13543916
0003e0 a2 ca 49 3d 56 33 6c ba fb c8 af 3c 09 c8 20 bb
       0.04926551 -0.0009010335 0.02145814 -0.0024533293
0003f0 76 fa 83 ba da 12 52 3c ee 93 6d 3b 38 88 dd 3b
       -0.001006915 0.012821877 0.0036251503 0.0067606233

conv_1.eval_conv.bias f4 [26]
000000 f2 7a 75 3f 46 4a 10 be ce a6 3a bf 89 46 96 bf
       0.95890725 -0.14090833 -0.72910774 -1.1740276
000010 5b 32 f5 be 28 e8 5f 3e 6d 06 05 be 68 48 a7 bd
       -0.4788998 0.21865904 -0.12990732 -0.08168107
000020 6f ae 20 3f 07 38 24 bf ad ca 31 bf a0 9f 32 3e
       0.62766165 -0.6414799 -0.69449884 0.17443705
000030 20 50 ea 3b 18 d5 cd 3e 44 91 8d bd dc 7f 06 be
       0.007150665 0.4020164 -0.06912473 -0.13134712
000040 7d 44 7d 3e 70 6d c4 3c 37 38 12 be d0 dd dc 3d
       0.24733157 0.023977965 -0.14279257 0.10784495
000050 f4 e1 5b be 47 d7 af bd 3b 6c 98 3e 80 cd 43 bc
       -0.21472913 -0.08585983 0.29770073 -0.0119508505
000060 a8 02 41 bd 00 33 e0 3c
       -0.047121674 0.027368069

block_1.c1_r.eval_conv.weight f4 [26, 26, 3, 3]
000000 4b 40 02 bd 9e 74 a8 bd 15 5c 30 bd 45 ed dc 3b
       -0.031799596 -0.08225368 -0.043056566 0.006742152
000010 4d 9b 16 bf db 6e 43 3d 3d c8 28 bd 20 92 54 bc
       -0.5883072 0.047713142 -0.041206587 -0.012974292
000020 b7 a8 66 bc 19 c4 d8 bd b6 20 6e 3d 0e ad ad bd
       -0.014078311 -0.10584278 0.058136664 -0.08480273
000030 dc 23 47 bd 62 72 7a be be 5d 48 bd fd 5a 3d be
       -0.048618183 -0.24457696 -0.048917525 -0.1849174
000040 a4 ec 34 3e 54 18 f2 bd a9 e1 02 bd d1 51 1a bd
       0.17668396 -0.118210465 -0.031953488 -0.037675682
000050 78 8d 26 bd 51 76 64 3d 80 8f 5e 3b 58 0d c5 3b
       -0.04066226 0.055776898 0.0033960044 0.0060135536
000060 6e f8 a9 3c 7c d9 2d bb 2e f1 14 3d 7c c9 41 bc
       0.020748343 -0.0026527336 0.03636282 -0.011827823
000070 db c3 7f 3d c0 82 c6 3a 44 d8 a5 bc 43 d9 84 bd
       0.06244264 0.0015145168 -0.020244725 -0.06486752
000080 2a 22 8f 3d 6d 88 11 3d 71 26 0f bd ac 65 17 3d
       0.06988938 0.035530496 -0.03494877 0.036962196
000090 1a ac ed 3c 30 0e dc bd 4e dc 18 3d 3a f6 aa bd
       0.029012728 -0.107448936 0.037319474 -0.08347745
0000a0 2b 4b 1f 3e 34 90 35 bd 52 80 f5 3d ed 95 bd bd
       0.15556018 -0.044326976 0.11987366 -0.09257112
0000b0 db 6c a0 3d 87 83 ad bc 04 da 71 bd 84 09 6d bc
       0.078332625 -0.021180881 -0.059045807 -0.014467601
0000c0 b1 02 02 3d bd 0c 7b be 1a dd 4a 3d f2 d9 0d bb
       0.031740848 -0.24516578 0.049527265 -0.0021644798
0000d0 cd e7 35 bd aa 88 8f 3d d5 88 6a 3d ca ed e8 bc
       -0.044410516 0.070084885 0.0572594 -0.0284337
0000e0 47 81 30 bd a7 93 d3 3c 58 08 ef 3c 28 76 a3 3b
       -0.04309204 0.025827242 0.029178783 0.0049884506
0000f0 be 25 2d be 6c 7e 9a 3d 75 ac 9f 3d b0 fc 5d 3b
       -0.16908929 0.07543644 0.077965654 0.0033872537
000100 87 6c 92 3d 48 3b 52 3c a0 49 f3 3c 30 8e bc 3d
       0.07149606 0.012831517 0.029698193 0.092068076
000110 1a f9 3d 3e 10 e0 45 bb 5a 76 04 bd 4b 2d 62 3e
       0.18552056 -0.0030193366 -0.03233943 0.2208759
000120 56 e8 d3 3d 87 f9 a5 bc 69 5b 6b 3d 1a 9f dc bd
       0.10347049 -0.020260585 0.057460222 -0.10772534
000130 de 29 e6 bd 76 54 fe bd fd e6 0a 3d 2a ff b5 bc
       -0.11238454 -0.124184534 0.033911694 -0.022216398
000140 88 c8 c9 bd d4 ed 6b bd f1 9f 9a bd 33 a0 39 3d
       -0.098527014 -0.057599857 -0.07550038 0.045318794
000150 af 80 ab 3d 1a df 66 bd 93 94 89 bd 32 3e 62 3d
       0.08374154 -0.05636511 -0.067177914 0.055235095
000160 d8 27 94 3c 08 dc 64 bd 85 bf f9 3a 91 70 35 bb
       0.018085405 -0.0558739 0.001905427 -0.0027685503
000170 38 59 bc bb a5 9d 1d bb c2 03 1e 3c 4b ba 0b bb
       -0.0057479404 -0.0024050262 0.009644451 -0.0021320756
000180 59 ff d3 bb 07 61 7f 3b bf 76 01 3b 50 d9 8d b8
       -0.006469649 0.0038967745 0.0019754616 -6.7638815e-05
000190 f0 e1 65 bc 91 4b 2a 3b 71 c6 04 3c 74 ff a0 3c
       -0.0140309185 0.0025984982 0.008103953 0.01965306
0001a0 08 fa f3 ba 60 c0 15 ba ce 05 b6 bb e0 d9 14 3b
       -0.0018613944 -0.0005712565 -0.005554891 0.0022712871
0001b0 3e 4e bc 3c 94 72 c2 3c 0a 06 29 3d 42 5c 0e bd
       0.022986528 0.023736276 0.041265525 -0.034755953
0001c0 9e cd ec 3c e2 44 c4 3a 0c 96 04 bd c5 b7 5d 3c
       0.02890664 0.0014974142 -0.03236966 0.013532584
0001d0 64 ac ad bc 88 6a 00 3b b3 f6 45 3c dd f9 af 3c
       -0.021200366 0.0019594748 0.012082743 0.021481449
0001e0 62 99 52 3b fb ee a9 3c d5 c2 89 3c 2c 28 14 3c
       0.003213488 0.020743838 0.016816536 0.009042781
0001f0 48 28 48 bb ae 3b db bb 01 9a 2a 3c bc ea d7 3d
       -0.0030541588 -0.006690464 0.010412694 0.10542819
000200 3c ba 78 bd a5 5d 99 bd 1e f9 c6 bd c5 cb 56 3e
       -0.060724482 -0.074885644 -0.09715484 0.2097617
000210 f0 94 92 ba e4 4b 41 3e 95 37 25 be ec fc 7e bc
       -0.0011183303 0.18876606 -0.16134484 -0.015563231
000220 53 4b 5a 3c 86 d0 4b bd c8 93 17 be ba 2f da 3d
       0.013323623 -0.04975941 -0.14802468 0.10653634
000230 8c 12 96 bc 21 c1 ec bc 76 ae 31 be 44 eb b7 bd
       -0.01831939 -0.028900685 -0.17351708 -0.0898042
000240 cd 8b 40 3d c3 72 4a bc d8 d0 ba bd 8a d7 57 3d
       0.047008324 -0.012356463 -0.09121865 0.05269579
000250 51 d6 0e be e0 1c 8b bd 95 38 23 3c f0 8e 91 3b
       -0.13948943 -0.06792617 0.009962221 0.0044420883
000260 d3 ea a6 bd 66 ed 09 3d 6c 5f f9 3c ea d5 95 3d
       -0.08150258 0.033673666 0.030441009 0.073161915
000270 22 0b 23 bd ee f4 a5 bd d4 67 3b bc dd 05 36 3c
       -0.03980554 -0.08103357 -0.011438329 0.011109796
000280 00 ba 81 ba 08 f2 5d 3d 60 fe 63 3b e2 d3 7f 3b
       -0.0009897351 0.054185897 0.003478907 0.0039036204
000290 85 28 61 bd 2e 84 d1 3b e0 95 d0 3c f4 e3 70 3d
       -0.054970283 0.006393931 0.025462091 0.058811143
0002a0 d9 a8 d1 3c 5c 81 bd 3c e0 3a 71 3d 3c ba ce ba
       0.025593208 0.023132972 0.05889404 -0.0015772055
0002b0 75 91 98 bc 82 bf 96 3c 4a 69 7c bd 30 c2 22 3c
       -0.018624047 0.018401865 -0.06162385 0.009933993
0002c0 1f a3 43 3d ee 3e cc 3c 85 b9 6c bd 14 2f 0f 3d
       0.047762986 0.024932351 -0.057794113 0.034957007
0002d0 60 ff fc b9 cb a9 76 bc f2 a3 06 bd 20 ce 13 3d
       -0.00048255455 -0.01505513 -0.032871194 0.036085248
0002e0 25 3f 05 3d f6 ac a9 3b e8 4b cf 3a 65 65 4b bc
       0.032530922 0.0051780893 0.0015815469 -0.012414311
0002f0 50 0b f3 3b c0 5f 4b 3d c7 a1 42 3d b0 01 0a 3a
       0.00741712 0.04965186 0.047517564 0.00052645337
000300 bc e3 38 bd 56 9c 88 3d c7 f0 cc bc 95 db ef 3b
       -0.04513906 0.06670444 -0.025017155 0.0073198774
000310 50 90 a5 bc 5f 46 4c bc e0 8a f4 bc 81 32 fc 3c
       -0.020210415 -0.01246795 -0.029851377 0.0307858
000320 27 75 ab 3d 12 5b dd bc 96 b2 d4 3d a4 9c 1d 3d
       0.083719544 -0.027020965 0.10385625 0.038479462
000330 85 26 c1 3d 98 82 7b bb a6 c1 89 3c c5 39 3d bc
       0.09431175 -0.00383774 0.016815972 -0.011549418
000340 04 e0 2f 3c de 26 c1 bc ca 26 d7 3b 50 de df bb
       0.010734562 -0.023578104 0.0065659033 -0.0068319216
000350 15 ea fb bb 25 2e 4e 3d 88 b3 f6 3d 98 c1 ca 3c
       -0.007687817 0.050336976 0.120459616 0.024750516
000360 41 51 8c 3d 5d 67 1f 3d 1f d9 c4 3c 74 d6 2f 3d
       0.068514355 0.038916934 0.024029313 0.042929128
000370 c9 ed 58 3d 9a 1f 66 bb c6 3b 88 bb e8 1d fb bc
       0.052961145 -0.003511405 -0.004157516 -0.030653909
000380 4d d4 0a bd c0 f3 e2 bb 67 35 04 bc 8c 99 87 3a
       -0.033893872 -0.00692603 -0.008069373 0.0010345443
000390 c4 42 1e 3d 19 9d 47 3e c4 11 0c 3e 2d 40 4a bc
       0.03863789 0.19493522 0.13678652 -0.012344402
0003a0 9c 74 a1 3c 4e ec c2 bc 8c 69 7d be 70 76 e7 be
       0.019708924 -0.02379432 -0.24747294 -0.45207548
0003b0 6b 75 62 be aa 90 fe 3d 9f c6 93 3e 11 b5 26 3e
       -0.22115104 0.12429936 0.28862473 0.16280009
0003c0 40 45 93 3d d0 73 4f 3e 66 4f 99 3d aa dc b7 bd
       0.07190943 0.20259023 0.07485847 -0.08977635
0003d0 db c7 11 3e 0e 65 0c bd 4a 38 a8 3d ec 12 69 be
       0.14236395 -0.03427606 0.08213861 -0.22761124
0003e0 a4 cb 8d 3d 53 73 83 3d d2 0c 3e 3c 87 78 2b 3d
       0.06923607 0.06418481 0.011599736 0.04186299
0003f0 dd 8e e0 bc 2b 53 39 bd 18 20 30 bc 4c c6 23 bd
       -0.027411873 -0.04524533 -0.010749839 -0.039984033

block_1.c1_r.eval_conv.bias f4 [26]
000000 37 68 cc be 0c bb da 3f 83 80 ce 3d 0e 71 bd 3f
       -0.3992326 1.7088332 0.100831054 1.4800127
000010 3a ef 0a 40 fa ae 17 40 68 79 5a 3e 20 ec da bc
       2.1708512 2.3700547 0.21335375 -0.026723921
000020 45 44 ef be ac 16 82 3f 55 b9 4e 3f f5 cf 96 3f
       -0.46731773 1.0163169 0.80751544 1.1782213
000030 1e 97 a5 3f 68 5e 57 c0 4c df 1f bf f4 0a 21 bd
       1.2936742 -3.365137 -0.624501 -0.039317086
000040 86 10 4d c0 cc 9a 16 bf 9b ef cf bd f8 da fe bf
       -3.2041335 -0.5882995 -0.10153123 -1.9910574
000050 58 83 3e bf fe d7 fe be 86 6f d8 be ba 6c c1 3e
       -0.74419165 -0.49774164 -0.42272586 0.37778264
000060 08 45 64 40 9c b8 a6 3d
       3.5667133 0.0814068

block_1.c2_r.eval_conv.weight f4 [26, 26, 3, 3]
000000 bd b6 9a 3c 92 98 5e 3d 31 d2 9a 3c 2e 1b 1a 3c
       0.018885965 0.05434472 0.018899055 0.009405894
000010 85 4f 15 be 92 a5 ce bc 27 25 e4 3c b5 6f 0c 3d
       -0.14581116 -0.025225434 0.027849747 0.03428622
000020 80 31 b8 b8 11 6d c4 3c 62 30 c3 3b 1c a6 4c bb
       -8.783024e-05 0.023977788 0.0059566954 -0.0031226939
000030 e5 84 20 3d 3a bb 24 3d bf db 2d bc 62 75 91 3c
       0.039189238 0.040217616 -0.010611474 0.017756168
000040 55 bf 61 bd f1 2e ab 3c 9e d7 26 3b 61 cf d3 3b
       -0.05511411 0.020896407 0.0025458108 0.0064639305
000050 04 6b cf b9 a2 dd 9b 3a 4c 18 67 ba fb 6a 28 3b
       -0.0003956185 0.0011891613 -0.0008815571 0.002569853
000060 3c b7 08 3a 22 4d 8c bb b0 8b b6 38 fd 2c 09 bd
       0.00052152923 -0.004281656 8.704455e-05 -0.03349017
000070 40 cd be bc 4b e9 08 bd ab e0 bc bc e2 82 06 3c
       -0.02329123 -0.03342561 -0.023056349 0.008209916
000080 d9 28 8e bc 1d 53 eb 3b 8d 7c 47 bd 1f f5 8d bb
       -0.017353462 0.0071815387 -0.048702765 -0.004332199
000090 cc 5c c9 3c 10 67 4d 3c db 96 71 3c 47 08 5d 3d
       0.024580382 0.012536779 0.014745439 0.053962972
0000a0 44 7c e3 3c 6c fa ee 3c 3b 5b be bb 40 2e a6 bb
       0.027769215 0.029172145 -0.0058092154 -0.0050714314
0000b0 a2 69 d0 3c 76 3e 84 3d 39 a2 60 3d 07 00 7f bc
       0.025440995 0.06457226 0.054842208 -0.015563971
0000c0 5c ca d6 3c 6b 1a 43 bd 00 fe 14 39 59 2e 43 3d
       0.02621954 -0.047632616 0.00014209002 0.047651622
0000d0 13 a3 1c bd b9 dc 27 bd bf 77 3e 3b d6 69 f3 bb
       -0.038241457 -0.040981982 0.0029063073 -0.007428388
0000e0 1a 2f 98 bb 2b 04 7b 3b 8a e0 21 bd 50 79 ad 3a
       -0.004644287 0.0038302045 -0.039520778 0.0013235006
0000f0 ef b6 85 ba 15 16 9c 3b 4e 26 cd 3b 68 0f a7 bc
       -0.0010201613 0.0047633746 0.00626067 -0.020393088
000100 6b 27 c4 bc 39 83 56 bb 82 ce 04 3c d5 89 9b 3d
       -0.023944577 -0.0032732023 0.008105876 0.07594649
000110 45 e1 5d bc 89 cd 64 bc c0 6b 9c bb 9c 4c 3f bc
       -0.013542478 -0.013965019 -0.004773587 -0.01167598
000120 74 c6 06 3c 0c 35 ae bb 81 22 d0 bb 56 72 b7 3c
       0.008226026 -0.0053163823 -0.0063517694 0.022393387
000130 58 bc 9e ba 3c 77 b1 bb 94 6a c7 3b e6 81 1f bc
       -0.0012110574 -0.005415825 0.006085703 -0.00973556
000140 9c 97 2e ba 60 c0 21 bd 27 7b 95 3c 49 ba e0 bb
       -0.0006660165 -0.039490104 0.0182472 -0.0068581444
000150 a6 9e 30 bd 10 8e 0f 3e 59 17 0a 3c ca 4c cf bc
       -0.04312005 0.14019036 0.008428418 -0.02530517
000160 70 d1 a7 bc 4e 9f b0 bc a8 38 ea 3a 01 78 1f bc
       -0.02048561 -0.021560337 0.0017869668 -0.009733201
000170 af 10 27 bb c7 40 2f bd be 5e 1e bd 43 9b c4 3b
       -0.0025492122 -0.042786386 -0.038664572 0.005999954
000180 5d de 34 3c 70 b8 28 3a 40 cb 0d 3a 05 1a 5c 3c
       0.011039344 0.0006436175 0.000540901 0.013433938
000190 30 c5 1e ba 34 e0 71 3c da b0 a4 3d e2 a8 ab 3d
       -0.0006056605 0.014762927 0.08041544 0.08381821
0001a0 b0 b5 08 3a 97 3e c3 3c 97 77 57 bd 84 f1 9b bc
       0.0005215062 0.023833556 -0.052604284 -0.019036062
0001b0 f3 5a 09 bd 5a e9 61 3d fc 27 b1 bb 82 e9 1a bd
       -0.033534 0.055154182 -0.005406378 -0.037820347
0001c0 f9 8b dd 3d 0c 9c 03 bb 93 58 1f bd 8b dd bf bc
       0.10817713 -0.0020082025 -0.03890283 -0.02342107
0001d0 d8 30 c0 bc 4c bd 95 be a9 95 61 be ae f8 54 be
       -0.02346079 -0.29245985 -0.22029747 -0.20797989
0001e0 17 ae d8 3d 15 64 16 3f 83 65 8a bd 1e 31 41 bd
       0.1058008 0.58746463 -0.06757643 -0.047165982
0001f0 4f 2f e2 3d f0 3a e6 bd 5c 23 14 bc 00 c4 8d 3a
       0.1104418 -0.1124171 -0.009041633 0.0010815859
000200 7b ce 8a 3c 94 03 ba 3c 00 8b ba bd 33 b4 43 3d
       0.01694416 0.022706784 -0.091085434 0.047779273
000210 e7 5b 77 bc 5c 22 02 3d ec 58 0c bb 5f bc 62 bb
       -0.015097595 0.03177105 -0.0021415306 -0.0034597141
000220 43 71 ce bb 0c fd df ba 9c d4 c2 bc 74 69 74 bd
       -0.006300123 -0.0017088964 -0.02378302 -0.05967088
000230 8e e3 0b bd 72 87 81 ba c1 97 33 3c 2e 1e 9c ba
       -0.03415256 -0.0009882285 0.010961474 -0.001191085
000240 1c 3f 73 be 79 5d 9e be 44 f9 d1 bd 27 e4 bb be
       -0.23754543 -0.3093069 -0.10252622 -0.36697504
000250 be b4 3b 3f 73 d0 5e be b4 d3 32 3c 5a 80 99 be
       0.73322666 -0.21759205 0.010914732 -0.29980737
000260 d1 4a 4a 3e fe fc 3d bc 9a 7d 01 bc 09 a3 37 bc
       0.19755103 -0.011595963 -0.007903481 -0.011208304
000270 2e 1f fe 3a 54 f0 b2 ba e2 8d 80 bb 33 7d 5e bb
       0.0019387954 -0.0013651946 -0.0039231637 -0.0033949136
000280 a4 24 51 3c 51 68 b3 bb eb 52 c6 bc 93 de e6 bc
       0.012765083 -0.005475082 -0.02420946 -0.028182304
000290 f0 fb f5 3a fa bf 41 bb d0 d1 23 3b a6 72 cc 3b
       0.00187671 -0.002956389 0.0024996884 0.006239253
0002a0 c6 d3 7a bb 57 fc 71 3c 89 7a e7 3c fd a5 30 3d
       -0.00382732 0.014769635 0.028256672 0.04312705
0002b0 8d 46 5a 3d 70 9f b4 ba 22 28 f8 3b a0 09 4a bc
       0.05328994 -0.0013780426 0.0075731436 -0.012331396
0002c0 34 b6 3d 3c 50 63 89 bc 76 b5 17 bd 26 88 6e bd
       0.011579085 -0.016770989 -0.03703829 -0.05823531
0002d0 60 12 e4 bd a2 7a 1c be 00 d3 90 bd fb 80 05 be
       -0.11136317 -0.15281156 -0.07071495 -0.13037483
0002e0 da 01 c2 3e 36 bf 89 bd 6f 6b 9d 3d 03 f9 26 be
       0.37892038 -0.06725924 0.07686507 -0.16305928
0002f0 fe cb d5 3b 7c 4b d4 bc 4f b2 22 3b 80 ac 05 37
       0.006524562 -0.0259149 0.0024825518 7.967581e-06
000300 19 e7 56 bd 35 e4 aa bc ec 3b 9a 3b f4 c9 69 bc
       -0.052466486 -0.02086077 0.0047068503 -0.014269341
000310 46 c0 c3 3b c0 a8 ef 38 6c 94 c6 3c 62 99 ad 3c
       0.0059738485 0.0001142784 0.024240695 0.021191303
000320 40 1b db 3c 44 ca ad 3b 9a 1b bf bc ff f2 ae 3c
       0.026746392 0.005303653 -0.023328591 0.021356104
000330 10 1b 0e bd 5d a2 90 3d 68 5a ea 39 86 73 bd 3b
       -0.034693778 0.07062218 0.00044699316 0.0057815937
000340 9b 9b 50 3c 3a 4c e7 ba 89 dd a8 bc 39 72 65 bc
       0.012732412 -0.0017646619 -0.020613449 -0.014004284
000350 56 a3 ed 3a c1 f3 2d bb 5d 77 a4 bb c5 15 77 3b
       0.0018130343 -0.0026542994 -0.005019112 0.0037702185
000360 e0 c8 ee 39 27 a2 a1 bd f1 fe e3 bd ee ce 07 3c
       0.0004554456 -0.07892256 -0.111326106 0.008289082
000370 90 6d 1f 3d db e4 ac 3c c0 7f 00 3d 85 0e 97 bd
       0.038922846 0.02110522 0.031371832 -0.07375816
000380 b1 1e 5d 3c a0 58 03 bb 70 c9 a6 39 9b 61 c2 3b
       0.013496087 -0.0020041838 0.0003181207 0.0059320456
000390 33 22 4e bc 72 68 8d bc f7 f1 c9 ba 37 d8 28 bc
       -0.012581396 -0.017261717 -0.0015407194 -0.010305456
0003a0 92 10 c5 3c 33 1c 25 bc 92 5d 30 3c 1e bc 4e bd
       0.024055753 -0.010077524 0.010764496 -0.05047237
0003b0 2c 44 38 3d d8 3f 76 3d 87 b7 a2 bd dc d2 a4 3c
       0.04498689 0.06011948 -0.07945161 0.020120077
0003c0 b5 e8 aa bc 61 57 a7 bc f1 01 ca 3b 88 18 38 3d
       -0.020862916 -0.020427408 0.006164782 0.04494527
0003d0 e8 99 2a bd 8b 03 32 3d a1 ea 83 3c 4a a3 8d bc
       -0.041650683 0.04346041 0.01610309 -0.017289776
0003e0 a9 51 0c 3c 5b aa a0 bc 0b b0 bb bc 7c 6b be 3c
       0.008564391 -0.019612482 -0.022911092 0.023244612
0003f0 b3 49 97 bb b9 79 86 3b 72 87 bc 3b f3 31 6c 3b
       -0.00461694 0.004103866 0.005753451 0.0036040514

block_1.c2_r.eval_conv.bias f4 [26]
000000 6f c3 84 3f da d6 94 3e e0 6f 93 c0 a2 43 8f bf
       1.0372142 0.2907017 -4.6074066 -1.1192515
000010 18 23 4d be b8 26 4c c0 28 3a 22 c0 7d 6e a7 c0
       -0.20032918 -3.1898632 -2.5347996 -5.2322373
000020 32 57 26 3f 82 09 80 be cb 99 85 c0 63 59 03 be
       0.649768 -0.25007254 -4.1750236 -0.12827067
000030 23 62 a6 bf 4c bf 91 c0 9c dc 70 3f 90 55 9b 3f
       -1.2998699 -4.5546017 0.94086623 1.2135487
000040 ca 20 ae 3f 33 a5 87 3f 6c a9 6c c0 90 41 88 bf
       1.3603756 1.059729 -3.6978407 -1.0645008
000050 72 6f a9 3f 34 32 07 3f 7e d5 9d be 8e 9f 3d c0
       1.3237135 0.5281098 -0.30826944 -2.9628634
000060 7c b8 b9 c0 57 c1 38 c0
       -5.80377 -2.8868005

block_1.c3_r.eval_conv.weight f4 [26, 26, 3, 3]
000000 62 00 98 3a bc 48 c2 3a bd 66 1c 3a c3 14 a3 3b
       0.0011596794 0.0014822702 0.0005966237 0.00497684
000010 40 ae 46 b9 67 00 9d 3b 94 e2 12 3b 9e 49 7c 3b
       -0.00018947665 0.0047913077 0.0022412883 0.0038496028
000020 ea 72 f4 ba e6 5d 23 bb 25 34 b4 bb e6 16 c0 ba
       -0.001864997 -0.0024927794 -0.00549938 -0.0014655262
000030 4c 12 0b ba 20 9d 63 3b 12 ff 8d 3a 63 a9 fd 3a
       -0.00053051556 0.0034731105 0.0010833463 0.0019352849
000040 04 0c ad bb 0a 34 e0 ba a0 58 dd b9 15 99 5a bd
       -0.0052809734 -0.0017105353 -0.00042218436 -0.053368647
000050 88 09 ac bc 8b 08 c4 bd b3 66 4b bd 5f 73 5b bd
       -0.021000639 -0.09571942 -0.04965849 -0.053576823
000060 56 0d 35 3d 3f 11 52 3c e0 37 07 bd c3 29 86 bb
       0.04420217 0.012821495 -0.03301227 -0.004094334
000070 48 2a 5f 3b 62 09 ef 3b 95 7c b9 3b bf a9 f5 bd
       0.0034052301 0.0072948197 0.0056606033 -0.11995267
000080 fa 6e 02 3c 2d 9b 12 bc ec 19 a1 3b 0f 25 94 ba
       0.007961029 -0.00894813 0.00491642 -0.0011302548
000090 39 3f 19 3c e2 bb 1b 3b dd 49 38 ba 68 b1 2c 3b
       0.009353452 0.002376311 -0.00070300495 0.002635086
0000a0 c1 41 ce 3b af 51 bf 3a 14 ec f1 3b c2 03 22 3b
       0.0062944596 0.0014596487 0.007382879 0.0024721478
0000b0 66 3b e7 bb f2 53 35 bc ad f0 f6 bb 42 6c 93 3b
       -0.0070566414 -0.011067377 -0.007536015 0.0044989893
0000c0 d7 b6 c6 bb 6b ba 78 3d c0 07 2f 3a 7d 36 7f 3b
       -0.0060642767 0.060724657 0.0006676875 0.003894239
0000d0 a7 ac f8 3b e7 13 a6 bb 8b 93 5d 3b 8d bf bc bb
       0.007588941 -0.0050682905 0.0033809866 -0.0057601393
0000e0 c2 59 39 bb 80 74 a2 3c e5 7d e0 bd a4 9e 52 bc
       -0.002828226 0.019830942 -0.109615125 -0.012855206
0000f0 71 79 cb bb 7a 49 69 3a 29 59 a7 bb 8c 44 31 3a
       -0.0062095453 0.00088991935 -0.0051070643 0.00067622284
000100 e2 67 1f 3d 4b 16 e7 3c c7 37 f7 3c 69 71 49 3f
       0.03891743 0.028208872 0.030177964 0.78688675
000110 43 3d 7f 3c 97 67 28 bc e8 30 fb 3c 40 53 b0 bc
       0.015578571 -0.010278604 0.030662969 -0.021524072
000120 06 5e 4d 3a d8 56 e1 38 9f 28 3c ba 7f b4 49 bb
       0.000783414 0.00010745012 -0.0007177684 -0.003077775
000130 00 b2 7b bb 18 36 23 3b d4 d2 ac ba a9 2e 1c 3b
       -0.0038405657 0.0024904069 -0.001318539 0.0023831523
000140 09 d4 04 3a c1 fe 6d ba de 4b 9a bb a2 39 ca ba
       0.0005066996 -0.0009078794 -0.004708751 -0.0015428553
000150 7c 49 53 3b 90 91 00 3c 9b 54 6a 3b be b6 c7 3a
       0.0032239845 0.007847205 0.0035755995 0.0015236957
000160 3e 8a 76 bb ef 82 1a ba ee 80 d4 3d 5d 19 a4 3d
       -0.003761902 -0.00058941444 0.10376154 0.0801265
000170 6e 31 db 3c 89 e5 29 3d e7 54 71 3d a9 16 40 3d
       0.026756968 0.041478667 0.05891886 0.04689661
000180 b6 bf 8e bc c7 17 20 bb cf 59 f0 bc 59 1a da bb
       -0.0174254 -0.0024428235 -0.0293397 -0.006655973
000190 e1 53 69 bb 6b cf 5d 3b e8 97 87 3b c0 53 16 ba
       -0.0035602974 0.0033845555 0.0041379817 -0.00057345256
0001a0 bb 4d ee 3b d4 d2 3e bb 11 13 84 bc b8 ef f2 b9
       0.00727245 -0.0029117363 -0.016122373 -0.0004633644
0001b0 1f a6 20 bb 12 a0 1b 3a 8b 7c 47 bb 9b ce 84 ba
       -0.0024513078 0.0005936633 -0.0030439224 -0.0010132374
0001c0 9f 80 73 bc 4e d9 3b 3a 88 d9 1a bb 23 93 ab bc
       -0.014862209 0.0007165865 -0.0023628194 -0.020944184
0001d0 35 25 f9 bb 10 ba 15 3b 75 c9 27 bd 16 70 0d bc
       -0.0076033124 0.0022846498 -0.04096361 -0.00863268
0001e0 03 82 8f bd fe a0 5a be 46 91 97 3d 89 1d 17 bd
       -0.0700722 -0.21350476 0.074007556 -0.0368934
0001f0 1f 11 bb 3d c0 dd 9d 3c 6f f2 88 3c 31 c3 3b bb
       0.09134125 0.019270778 0.016717164 -0.0028650279
000200 16 4c 91 3b b0 95 c8 3b 48 55 35 bb 7c 62 87 bb
       0.004434119 0.0061213598 -0.002766924 -0.0041316133
000210 92 bd b5 ba 38 d7 05 3b a8 61 fa 3a ee 00 b3 ba
       -0.00138657 0.002042247 0.001910259 -0.0013656893
000220 ac 0c 1f bb 59 d1 86 3a 93 0b 31 ba bb 0a 87 3c
       -0.0024269028 0.0010285779 -0.0006753739 0.016484609
000230 34 bf ad bb 1d de 0a 3b d0 0a cb bb e3 d4 f5 ba
       -0.005302334 0.0021189519 -0.0061963573 -0.0018755462
000240 c0 e1 4e ba fe c1 a0 ba 91 cd 84 bb 0f db ba ba
       -0.0007891916 -0.0012264845 -0.0040528257 -0.0014255958
000250 2b 4c ca bb c8 35 a5 b8 72 df 03 3b 28 e5 ef 3b
       -0.0061736307 -7.877831e-05 0.0020122197 0.0073210187
000260 53 90 e2 3a 17 55 77 3b bc 23 0e bc 7f 3b cd ba
       0.0017285444 0.0037739926 -0.008675512 -0.001565799
000270 5b 43 a3 bb b8 12 af 3b e3 27 c5 b9 ef 8b 56 ba
       -0.0049823946 0.0053428076 -0.00037604486 -0.0008184304
000280 8b a9 8d 3a 0a b6 81 b9 ce ef 18 3c 98 78 c5 3a
       0.0010807974 -0.00024740427 0.009334518 0.0015065847
000290 14 62 1f bb 88 ba b3 bc 02 da e5 3d 95 d7 1c bd
       -0.0024319934 -0.021939531 0.11223222 -0.038291533
0002a0 4c 49 f2 3b 10 c0 b4 3a 35 b8 83 bd 56 c7 9d bc
       0.0073939916 0.0013790149 -0.06431619 -0.01926009
0002b0 29 8c a5 3c b2 31 f2 bc c4 00 c1 bb 00 96 57 bc
       0.020208435 -0.029564712 -0.005889984 -0.013158321
0002c0 3b 0e af 3c 8c 4e da bb 7b 58 e0 3c c1 07 a3 3c
       0.02136909 -0.0066621955 0.02738594 0.019901158
0002d0 1b f0 97 b9 28 ec d3 39 13 c6 11 b9 b9 62 69 ba
       -0.00028979857 0.00040421006 -0.00013902066 -0.00089029555
0002e0 c0 65 41 38 4b 3a 56 ba 28 62 94 b9 22 8a 11 b9
       4.6109548e-05 -0.00081721385 -0.00028301892 -0.00013879736
0002f0 68 31 81 3a 73 d3 0f bb 89 8e 9c ba 55 55 1a bb
       0.0009856643 -0.0021946102 -0.0011944334 -0.0023549397
000300 c0 e2 2b bb 44 aa 21 bb 09 ca 1e 3b 37 41 31 bb
       -0.0026227683 -0.0024668137 0.002422931 -0.0027046928
000310 48 86 0a 3b e2 a4 84 ba 21 80 ad 3a fc a5 88 3b
       0.0021137167 -0.001011994 0.0013237038 0.0041701775
000320 35 34 0c 3b a0 69 eb 3a 2c f8 37 bc 4a c5 28 3b
       0.0021393423 0.0017960556 -0.011228602 0.002575236
000330 88 0c 8b 38 f6 30 27 bb d4 c8 ad 3a 77 ec 14 3c
       6.6303706e-05 -0.002551136 0.0013258704 0.009089581
000340 d7 28 0e bd d8 45 75 3d ad 64 b8 3c c5 be 73 bd
       -0.034706917 0.05988106 0.022508943 -0.059508104
000350 cb 5e d6 bc 05 cf bc bb eb be a4 bc 78 82 29 3a
       -0.026168248 -0.0057619833 -0.020110568 0.000646628
000360 5f 3d 8d bc 3b 82 ad bc 2b b5 3a bd be 08 dd bb
       -0.017241178 -0.021180263 -0.04558293 -0.006745427
000370 fe 47 98 bd 58 b6 08 bc 89 a9 27 3c e4 e3 08 ba
       -0.074356064 -0.008344255 0.010233291 -0.00052219466
000380 b7 6e 14 bc 1b 45 00 bd 5f 55 f2 bc 58 4a 12 bd
       -0.0090596 -0.031315904 -0.029581724 -0.03571543
000390 9e 76 5a 3d 2f 3e 77 bd 12 5a b2 bb e1 30 5e 3c
       0.05333578 -0.060362037 -0.005442866 0.013561458
0003a0 fb 7c c9 3c d1 9a 3a bc cd 4a b7 3d 60 fe c6 bb
       0.024595728 -0.01138945 0.08949814 -0.0060728043
0003b0 af 15 b7 3c 8c 95 22 3d fe 4a b1 3e b2 aa c7 bc
       0.022349207 0.0396934 0.34627527 -0.024373386
0003c0 cb cb 78 3d 29 39 25 3e 85 ac 58 3d c0 32 18 3e
       0.060741227 0.16135086 0.052898902 0.1486311
0003d0 ee 62 2f 3e 98 3c 74 3c 12 58 48 bf 04 8d 95 be
       0.17127582 0.014907025 -0.78259385 -0.2920915
0003e0 60 89 60 bd d9 be 6b 3e 76 3b 77 3c 2d 23 d7 bc
       -0.05481851 0.23022021 0.01508986 -0.02626189
0003f0 e1 6c d7 bf d2 d1 58 bf 5e 0f 24 3f 1d 73 11 c1
       -1.6830102 -0.8469516 0.6408595 -9.090604

block_1.c3_r.eval_conv.bias f4 [26]
000000 8f 47 59 be b2 46 16 c0 58 09 65 3f 37 d0 8e bc
       -0.21218704 -2.348065 0.8946738 -0.017433269
000010 f4 78 a6 bd cf 38 de bd 48 64 9f bf 9f 4b a5 bf
       -0.08128539 -0.10850679 -1.2452478 -1.2913703
000020 1c 90 1e 3c ea b8 04 3e de 13 ae 3e ae b7 85 3d
       0.009677913 0.12961164 0.33999532 0.06529175
000030 a4 17 60 3d 10 cf 2a 3d 10 41 85 3f 68 58 3b c0
       0.054710045 0.041701376 1.041048 -2.927271
000040 a3 6c 46 3f 6d 92 f4 3c f9 b0 20 bf 60 40 ba bb
       0.77509516 0.029854978 -0.6277004 -0.0056839436
000050 90 03 0e bc 03 2f a1 3b 1d 11 95 3e 60 7e bf bb
       -0.008667842 0.0049189343 0.2911462 -0.0058439225
000060 e0 78 42 3b cc e3 24 3e
       0.0029674098 0.16102523

block_2.c1_r.eval_conv.weight f4 [26, 26, 3, 3]
000000 7c 6c aa bd 13 87 8b be a4 d0 96 bd cc c2 cd bf
       -0.08321473 -0.2725149 -0.07364014 -1.6075072
000010 26 9f a1 3f dd 60 c5 3e 06 22 85 be a2 4a e0 3e
       1.2626693 0.38550463 -0.2600252 0.4380694
000020 5d d3 b8 bd 54 d8 88 bd 4a 35 22 3e 4d 35 4b 3e
       -0.09024689 -0.06681886 0.1584064 0.19844551
000030 ba af 4d 3e 08 92 2b 3e b5 02 0f be ef 83 c7 3d
       0.20086566 0.16754925 -0.13965876 0.09741961
000040 d6 4f 0c 3e 2c c7 6b 3e e6 0d 11 3e c7 7d 20 be
       0.1370233 0.23025197 0.14165458 -0.1567298
000050 c2 63 cb 3d e9 16 6f 3e cc 35 ec be 74 07 80 be
       0.09931137 0.23348583 -0.46134794 -0.25005686
000060 c2 5a b1 3e e2 2c b5 be fd 01 ee 3d ba d4 2b 3f
       0.34639555 -0.35385805 0.11621473 0.6712147
000070 d2 ee b9 be c2 1b 26 3e b9 5c 96 bf f4 4a 07 3f
       -0.36315018 0.16221526 -1.1747047 0.52848744
000080 2d c8 62 bf f9 7d 0b bf 23 4f bc be a8 7e 2a bc
       -0.88586694 -0.54489094 -0.36779127 -0.010406174
000090 70 ed 11 3f 79 fb 81 be 02 83 88 bd 92 c6 66 c0
       0.57002926 -0.2538717 -0.06665613 -3.6058698
0000a0 80 e6 18 40 2e 5f 03 3f 37 f6 6a bf 8e 94 93 3e
       2.3890686 0.5131711 -0.91781944 0.28824276
0000b0 b3 fd 6b 3f 99 d9 11 be 30 2f 0e 3d 56 d6 71 be
       0.9218399 -0.14243163 0.03471297 -0.23616919
0000c0 b5 cb 58 bf 02 ab 9e 3f 16 1a 1c 3e 71 70 8d be
       -0.8468583 1.2395937 0.15244326 -0.27624848
0000d0 28 0d d2 3d 05 39 56 be 1e 87 e0 be b4 05 cc 3e
       0.102564156 -0.20920189 -0.43853086 0.398481
0000e0 70 dd 35 3d 48 09 00 3f 77 7f 87 3f 80 bf 58 bc
       0.044400632 0.5001416 1.0585774 -0.013229251
0000f0 00 3b 80 3e 29 42 88 be cc 1a 81 3c 48 19 34 3d
       0.25045013 -0.26612976 0.015759848 0.043969423
000100 1f a8 e2 3d b0 d9 c0 bc f1 65 29 3f 20 db 87 3d
       0.11067223 -0.023541301 0.66171175 0.06633592
000110 f8 d9 cc bc 4f 69 2f bf 38 4f 21 3e a7 eb 0e be
       -0.02500628 -0.68520063 0.15752876 -0.13957082
000120 9b b0 3f bf 0f b0 d4 3e 80 d0 1c 3f e8 af 35 40
       -0.74878854 0.41540572 0.61255646 2.8388615
000130 be ee c4 bf b9 0d 00 be ae 4a d2 be 70 d6 32 3d
       -1.5385358 -0.12505235 -0.410726 0.043661535
000140 b0 9a 43 3e a1 93 5f be 75 fa 86 be 89 72 cf be
       0.19101977 -0.2183366 -0.2636296 -0.4051707
000150 74 65 e4 3f 8c 88 13 c0 8f ac 1e bf 67 81 4e 3f
       1.7843461 -2.3052092 -0.61982054 0.806662
000160 56 e6 39 bf 97 f0 af be 4c 1a ab be 3a c6 8e 3e
       -0.7261709 -0.34363243 -0.334185 0.2788561
000170 44 98 53 be 19 bb 4f c0 0c ca 56 40 cd 0f 02 3f
       -0.20663553 -3.2457945 3.356082 0.5080536
000180 76 1d 13 bf 4f b3 0d 3f 3b de 8f be 00 96 93 3f
       -0.5746683 0.5535173 -0.28099236 1.1530151
000190 4f fd 9f 3e 5a 37 c2 3e 40 dd 58 c1 ec 4c 89 3e
       0.31247947 0.37932855 -13.554016 0.268165
0001a0 24 4d 3a be 25 8d ba 3e 73 56 46 3d ba c6 88 3e
       -0.1819349 0.3643581 0.04842229 0.26714116
0001b0 46 ab c3 3f b6 7a cf 3f 6c 95 12 3f a8 ca f9 3f
       1.5286644 1.6209323 0.5725925 1.9514971
0001c0 02 1c 59 c1 10 58 d2 c0 8e ca e1 3e 41 0a ef 3e
       -13.569338 -6.57325 0.4409985 0.4668751
0001d0 b0 8d 56 be 16 2b 24 3f 45 54 64 3f f8 41 05 3e
       -0.20952487 0.64128244 0.89191085 0.13013446
0001e0 c6 5e 99 40 07 cf 78 c0 44 83 78 bf 8c 77 a5 be
       4.792819 -3.887636 -0.97075295 -0.3231777
0001f0 7e 38 3c 3f bc a0 dc bc c0 eb 77 3c 9b a8 4b bd
       0.735237 -0.026932113 0.015131891 -0.04972134
000200 8b f8 76 3e 14 21 1f bf b6 bd a6 bd 76 00 a6 be
       0.24118249 -0.6215985 -0.08141653 -0.32422227
000210 be 88 ea be 81 75 e3 bd 83 7c 96 bd de e9 9e bd
       -0.4580745 -0.111063965 -0.073479675 -0.077594504
000220 d3 0b 6f bd 2f 9f 5a 3e 33 4e b0 3d b4 91 b1 3d
       -0.058360886 0.21349786 0.08608665 0.08670369
000230 4f 48 83 be 0f 30 38 3e 47 1b 61 bd b4 05 b6 3c
       -0.25641105 0.17987083 -0.054957654 0.022219516
000240 b2 66 a0 3e c4 db 15 bd 81 be e4 bd d3 05 24 be
       0.3132835 -0.036586538 -0.11169148 -0.16017847
000250 0b cd 28 3f 00 aa 1e ba b1 71 d0 3e 8a d4 f3 3d
       0.6593787 -0.00060525537 0.4071174 0.11905773
000260 ed 14 9f 3d 25 8f 1d 3e 7c 6c 5c 3e cc 24 bd 3e
       0.07767663 0.15386637 0.21525759 0.36942136
000270 00 d2 88 3e 7a 70 3b bf 51 55 b4 bd b2 5e b4 3e
       0.26722717 -0.732185 -0.08805335 0.35228497
000280 4c 77 b1 be 48 07 ef 3e 87 91 2b be 70 fb a1 bd
       -0.3466133 0.46685243 -0.16754733 -0.07909286
000290 ca 95 57 bf d9 a6 df bf 02 70 10 be 99 2a 74 be
       -0.84212935 -1.7472793 -0.14105228 -0.23844375
0002a0 8b c1 a9 bf c5 6b c4 be 0c 80 5a 3d 8b c6 23 3f
       -1.326219 -0.38363472 0.05334477 0.6397483
0002b0 36 47 00 be 51 16 37 bf 41 81 2f 41 fd b3 79 c0
       -0.12527165 -0.7151843 10.969056 -3.9016106
0002c0 de 46 c8 3e ab 75 ab 3e 9c 46 92 be f3 56 59 bf
       0.39116567 0.3348821 -0.28569496 -0.848983
0002d0 de 8f 07 c0 8a d8 bf 3f 21 f8 96 3d fd 5f 95 40
       -2.118156 1.4987957 0.073715456 4.6679673
0002e0 8f 91 b6 c0 dd 39 51 3f be 19 30 40 76 b0 49 c0
       -5.7052684 0.8172892 2.7515712 -3.1513953
0002f0 40 c1 b3 3e 22 36 1f 3f 5c 56 c3 3e d0 c5 93 bc
       0.35108376 0.62191975 0.38151824 -0.01803866
000300 84 81 a6 40 ca 72 23 c1 41 f2 c5 bf 97 ca 4e 3f
       5.20331 -10.215525 -1.5464555 0.8077788
000310 04 fb 82 3f 2f ab 2c 3f 52 68 86 be 9e 41 30 3e
       1.0232854 0.67448705 -0.26251465 0.17212531
000320 5d 54 99 bd 21 7a dc 3e 30 8c 51 be 13 81 88 3d
       -0.07486794 0.43061927 -0.20463634 0.06665244
000330 b3 10 db be 6c 3a bb 3d 92 75 3a 3d 82 d8 4f bf
       -0.42786178 0.091420025 0.04552228 -0.8118974
000340 94 96 8b 3f 8c a2 95 be 8b 7f a2 3f fc e5 ba bf
       1.0905328 -0.29225576 1.2695173 -1.4601436
000350 c4 22 31 3e 70 50 18 40 b2 0b 2b c0 f4 de 5d 3d
       0.17298418 2.3799095 -2.6725888 0.054167703
000360 45 d6 61 3f 22 34 af bf a6 ef c1 bd 73 a3 8b 3e
       0.88217574 -1.3687785 -0.094695374 0.2727314
000370 d7 a5 6d bf a4 9b 50 bf 28 18 1a be 49 d1 13 3f
       -0.92831177 -0.8148749 -0.15048277 0.5774122
000380 71 6e 02 3f a2 25 cd 3d 8b ec 8f bd 43 7b 7a be
       0.5094977 0.100169435 -0.07027539 -0.24461083
000390 ec 03 35 3f 8e 85 07 3f d8 54 d7 3e 43 87 d1 3e
       0.7070911 0.52938163 0.42056918 0.4092351
0003a0 af 19 82 3e 46 84 bf 3e f3 70 d5 bd e9 66 12 3f
       0.2541022 0.37405604 -0.10421934 0.5718828
0003b0 e1 6d bc 3e e1 95 0a 3f e8 8e cb 40 fe ac 19 3e
       0.3680258 0.5413495 6.3611946 0.15007398
0003c0 85 22 55 be 52 a7 cd be 7e 5a 98 be c4 3e 14 3c
       -0.2081395 -0.40166718 -0.2975654 0.009048168
0003d0 30 18 85 bd 22 99 c0 bd d6 82 71 3d ed 2a 76 bd
       -0.06498754 -0.09404208 0.058962665 -0.06009953
0003e0 ac 55 0c 3c 6b 2e 3e bc 79 65 54 bd 78 01 e9 3c
       0.008565348 -0.011607747 -0.051854584 0.028443083
0003f0 a3 5a a5 3c 8a 6d d5 bc f2 b5 b1 bc fc 13 90 bc
       0.02018482 -0.026053209 -0.021693204 -0.017587654

block_2.c1_r.eval_conv.bias f4 [26]
000000 9d 0d 44 bf ae 29 42 bf 54 ce 49 3f d3 a3 d5 be
       -0.7658327 -0.7584485 0.78830457 -0.4172655
000010 11 3e 9a 3f e9 a1 e8 3f 49 37 92 bf d6 ef 86 bf
       1.2050191 1.8174411 -1.1423122 -1.0541942
000020 1a e1 35 3f f2 bc 34 3f 47 5e 00 3e c8 4e 9b be
       0.710466 0.7060081 0.12535964 -0.30333543
000030 5a a3 84 be b6 26 50 bf 3c 74 48 bf f4 c4 bb bf
       -0.25905877 -0.8130907 -0.7830236 -1.466948
000040 e3 2f f4 3f 29 3b a2 c0 9b 36 fe 3e 8b 9d 8c 3e
       1.9077114 -5.0697217 0.49651036 0.27463946
000050 16 c7 f1 3e 33 63 77 3f fe 7e 1f c1 c2 1e 65 be
       0.47222203 0.9663574 -9.968504 -0.22375014
000060 0e 45 ce 3d e0 c7 87 3d
       0.10071765 0.0662992

block_2.c2_r.eval_conv.weight f4 [26, 26, 3, 3]
000000 a9 af b9 bc d5 61 9d bc 40 28 cb 38 5f 1a fa bc
       -0.02266677 -0.019211689 9.6872915e-05 -0.030530153
000010 74 fd 85 bd 2e a0 91 bc d1 45 76 bc 62 a9 22 bd
       -0.06542483 -0.017776575 -0.015031294 -0.039712317
000020 bc 08 e8 bc 62 36 cd bc ec 64 a0 3d e5 c7 ad 3c
       -0.028324477 -0.025050346 0.07831749 0.021213481
000030 22 cf 12 bc d8 f8 06 bd 79 ed 49 3c 57 e1 9a 3c
       -0.008960517 -0.03295216 0.012324684 0.018906279
000040 19 5e 87 3d 77 08 f9 3c 25 ea e1 bc e6 44 36 3e
       0.066097446 0.030399544 -0.02757747 0.1779972
000050 23 6b f6 bc d6 58 b4 3d 3d 9a 8b be 1e 62 6f 3d
       -0.030080384 0.088060066 -0.27266112 0.05844318
000060 31 d5 e3 bc ab 4d 18 3e e9 32 5f bd 14 3e 52 bd
       -0.027811619 0.14873378 -0.05449191 -0.051328734
000070 93 84 1b bd b6 cd c6 bc 76 c0 92 bd ae e2 bb bd
       -0.03796823 -0.024268012 -0.07165615 -0.09174095
000080 53 8d 9b bc 88 62 cd bc c7 e2 f6 bc d8 3f 72 bc
       -0.018988287 -0.025071397 -0.030137433 -0.014785729
000090 64 5b ad ba c3 38 f1 3d 1c aa 12 3d 57 06 cb 3d
       -0.0013226089 0.117784046 0.03580676 0.099133186
0000a0 fd 76 b7 bd 4d 3d 53 bd ea f5 8b 3d 11 da b8 bc
       -0.08958242 -0.051572133 0.06834014 -0.02256492
0000b0 8e f4 09 bc 40 e7 f4 3c 1a 0f 85 bc b2 5f 22 3d
       -0.008420123 0.029895425 -0.016242553 0.039642043
0000c0 26 d1 e2 bd e1 db 09 be 2e 02 89 bd 10 e6 13 be
       -0.11075048 -0.13462783 -0.06689869 -0.1444323
0000d0 e3 68 0a be 9e 31 c5 bc 59 74 d8 3b 4b 2b 56 3b
       -0.13516574 -0.02407151 0.0066056666 0.0032679613
0000e0 70 2a 33 3c 64 cf 63 bd fb 67 9c bd a5 c9 83 bc
       0.010935411 -0.055617705 -0.0763702 -0.016087363
0000f0 b5 3e 71 bc 8b 89 0e bd 37 f6 0a bc 83 48 d8 3b
       -0.014724423 -0.03479914 -0.008481554 0.006600441
000100 f0 80 a3 bc 41 b9 06 3b c3 4a 3d 3c 74 30 43 3c
       -0.019958943 0.0020557197 0.011553469 0.011913408
000110 54 07 e9 ba b7 4d 4c bc 44 8a 0c 3c ab 6f d3 3b
       -0.0017778673 -0.012469701 0.008577887 0.006452521
000120 3a f2 8e bc 12 41 58 bc 80 53 5d 3b 24 dc 55 bc
       -0.017449487 -0.013199108 0.0033771694 -0.013052974
000130 5d 3a 22 3e 8e 4c 2a 3d 1d be 9e 3b 24 89 91 3c
       0.15842576 0.041576914 0.0048444406 0.017765589
000140 ae 6e 67 3c e8 be 00 bd d0 c6 62 bd 13 f2 ba 3c
       0.014125509 -0.031432062 -0.055365384 0.022820508
000150 b6 f1 3c be 2e 2e c6 bd 82 6b 4a bc f7 2e ef bc
       -0.1845158 -0.09676777 -0.012354733 -0.0291972
000160 33 56 e2 3d 10 c3 bd bd ae 35 e0 3c 6e bc 5d bd
       0.110515974 -0.09265721 0.027369346 -0.05413478
000170 29 39 4d 3d a4 d8 e3 3d ac 57 ae 3d 2e 49 b1 3c
       0.05010334 0.11125305 0.08512816 0.02164134
000180 86 6f 3b 3e b5 2d 71 3d a3 cb 0c 3e 65 5c c8 3b
       0.18304262 0.05888148 0.13749556 0.00611453
000190 32 f2 21 3d 0e 51 1a bc 49 2d f9 3d 7e 0c 30 3d
       0.039537616 -0.009418739 0.121668406 0.042980663
0001a0 f9 b0 ff bb 40 b6 d4 ba 9c cf 22 bc cf a5 29 3c
       -0.007803079 -0.0016228631 -0.009937193 0.010354473
0001b0 e2 cd cd 3d 2c f3 51 3d 21 5f 97 3d c2 6c d5 be
       0.10049035 0.051257297 0.07391191 -0.41684538
0001c0 a7 91 c9 3e d6 9f 10 bc d5 99 ce bc a3 ec 26 bd
       0.39368936 -0.00882717 -0.025219837 -0.040753018
0001d0 a7 41 bb bb 7b a3 19 bd 2c f0 0c 3d ce 63 eb bb
       -0.0057146135 -0.037509423 0.034408733 -0.0071835285
0001e0 92 0b f0 bc 4b ad 5e bc e2 85 aa 3a b3 ac 12 bb
       -0.029302392 -0.013591121 0.0013009871 -0.0022380769
0001f0 12 c0 8e bc 05 64 d4 3b 60 08 ef 3c 09 0e b9 bc
       -0.01742557 0.00648165 0.029178798 -0.0225897
000200 60 c4 25 b9 1c ad a6 bd 00 d7 be 3b eb 6e 30 3d
       -0.00015808782 -0.08138487 0.00582397 0.04307453
000210 e2 55 06 3d f0 3e e7 3a 60 e2 1d 3d 14 b7 06 be
       0.032796748 0.0017642658 0.038545966 -0.13155776
000220 a1 0f 2a be 2f 49 c1 bd 16 3c 3c 3e c0 0c a4 3c
       -0.16607524 -0.09437787 0.18382296 0.02002561
000230 7a 46 5d 3e 4b f5 f2 bd 23 71 67 3e 4d 4a 07 be
       0.21608916 -0.11863192 0.22601752 -0.13211937
000240 0a 25 73 3d 0d 4f 13 bd b1 15 4a bd b8 8b a7 3d
       0.059361495 -0.03596406 -0.049337093 0.08180946
000250 be d0 27 3e dc 17 eb 3d 32 14 31 3d c5 36 2c bd
       0.16388223 0.1147916 0.04323215 -0.04204442
000260 6e 0a 9b 3c ae fe 37 3e 49 78 ad bc 2c 58 79 3c
       0.018925872 0.17968246 -0.02117552 0.015218776
000270 1b b9 4e bd 90 ae d7 3c f5 d2 a7 bd 38 ee 8e 3d
       -0.0504695 0.026328355 -0.08194534 0.0697903
000280 09 ce 32 3e 84 4e 34 bc 63 fa 9d 3b c4 18 8b bb
       0.17461409 -0.011005048 0.004821108 -0.0042448957
000290 f7 f8 63 3c 30 53 5a 3c 00 3b 07 bc e4 c7 bf 3c
       0.013914338 0.0133254975 -0.008253813 0.023410745
0002a0 ea d2 23 3c 28 c7 3e 3c 18 97 e4 3c f4 dd fa bc
       0.009999016 0.011644162 0.027904078 -0.030623414
0002b0 d6 e1 4f bd 83 d5 23 bc 29 98 65 bd 4f 60 2a bd
       -0.050752483 -0.009999636 -0.056053314 -0.041595753
0002c0 67 ab 1a bc d2 48 e1 bc 91 2b 87 bc 50 d5 8a bc
       -0.00944028 -0.027500544 -0.016500266 -0.016947418
0002d0 7f bf a1 3c f5 00 60 3b 30 f8 02 bc c9 14 3f bc
       0.019744633 0.0034180258 -0.007993743 -0.01166267
0002e0 2f 93 93 3c 68 2f 49 bd 23 8f 07 bd 3c 47 2e bc
       0.018014519 -0.049117476 -0.03309549 -0.010637101
0002f0 27 78 9b bc e5 16 48 bc 34 4f 9b bd 70 e1 2e bc
       -0.018978192 -0.01221249 -0.07583466 -0.010673866
000300 77 bb 11 bc 0e 75 d8 3d 76 1b 86 3b ae 28 d0 bc
       -0.008894793 0.105692014 0.004092629 -0.025410023
000310 ba 44 84 bb 6b cd 1d bd f6 40 ef 3c 4b da 9d be
       -0.004036513 -0.03852598 0.02920578 -0.30830607
000320 12 c4 72 3c a4 07 14 3e 40 95 af bb c4 e4 ae bc
       0.014817255 0.1445604 -0.005358368 -0.021349318
000330 ce 52 18 bb f3 ae cb 3d 50 e0 80 be 76 ee b1 bb
       -0.0023242715 0.09945478 -0.25171137 -0.005430038
000340 29 84 2a 3c 55 35 cc 3b dc 44 b8 3a 5d e7 21 bc
       0.010407486 0.0062319436 0.0014058608 -0.009881821
000350 bb eb 13 bc 01 d1 7f 3b 3d 05 86 bb 7d f5 a8 3b
       -0.0090283705 0.0039034488 -0.00408998 0.0051562176
000360 6d 6d 70 3d cc f3 0c 3e f5 44 ae bc 0f 89 89 3e
       0.058698107 0.13764876 -0.021273116 0.2686238
000370 c1 9b 92 be 1c 90 f8 3b e8 7f d4 ba 74 93 0d bd
       -0.28634456 0.0075855386 -0.0016212435 -0.03456445
000380 de 5e b2 bc 74 85 0b 3b dc 07 2c ba ba 1e 02 3c
       -0.021773752 0.002128926 -0.00065624504 0.007941896
000390 ba 02 63 3d fa 1f 68 bd 6e a5 7a 3b 66 13 24 3d
       0.055422522 -0.05667112 0.0038245576 0.040057562
0003a0 cd e7 4f 3c bc 34 04 3d d7 21 48 3b f6 48 6c bb
       0.012689543 0.032276854 0.0030537748 -0.003605423
0003b0 73 43 91 bc 4f 16 9c bb 14 26 33 bc 17 fe 8c bc
       -0.017732358 -0.0047634016 -0.0109343715 -0.017211003
0003c0 20 e0 29 3c f5 bc 8b bb 1b 43 e4 3b ec ae 44 3b
       0.010368377 -0.004264469 0.0069660074 0.0030011488
0003d0 44 8d 44 bd ba 4f 06 3b c4 ef 23 3c 05 2a bd 3c
       -0.047986284 0.0020494298 0.010005895 0.023091326
0003e0 93 20 3f bc 10 cf f9 bb 8f 8f ae bc 4a 63 a6 3c
       -0.011665481 -0.0076235607 -0.021308688 0.020311017
0003f0 03 fe 92 3d cc 7b 68 3d f5 5a fb 3d e5 45 b2 3d
       0.07177355 0.056758687 0.12273208 0.087047376

block_2.c2_r.eval_conv.bias f4 [26]
000000 f7 d9 8f 3e 51 e4 60 be b1 ca 87 3d 28 83 d2 3f
       0.2809598 -0.21962096 0.06630457 1.6446276
000010 1e 6d 34 bf ba 71 a3 3f 7f cc 00 3f 0d f3 23 c0
       -0.70479 1.2769082 0.50312036 -2.5617096
000020 77 f8 20 be 70 16 20 bf 80 75 67 40 43 96 1f 3f
       -0.15719782 -0.62534237 3.6165466 0.62338656
000030 fd 16 58 3f a0 2a a1 3f 20 09 0d be 20 41 69 bf
       0.8441008 1.2591133 -0.13773012 -0.91115
000040 ea b3 d9 3e fa b1 9e 3e 93 2b 56 bf 65 ac cf 3f
       0.42520076 0.3099516 -0.8366024 1.6224486
000050 0c 6c 9d 3f 12 2b 95 be d5 c4 a1 bf 19 98 b4 3f
       1.2298598 -0.29134423 -1.2638193 1.4108917
000060 58 7c fc 3e 8f da 83 3f
       0.49313617 1.0301074
